tutorial8/MNIST.ckpt (torch_old, 310651 bytes, 11 tensors)

cnn.cnn_layers.0.weight f4 [16, 1, 5, 5]
0.020228233 0.07229567 0.03356627 0.11651241 -0.023375995 0.1639179 0.095156714 0.18756261
0.1810664 0.017321972 0.19939247 0.18984348 0.23019506 0.18817282 0.08493928 0.050552845
0.086588286 -0.028857274 -0.12243929 -0.03338701 -0.12445081 -0.14858192 -0.12639183 -0.02993553
-0.16129693 -0.07719899 -0.099459134 -0.15830861 -0.15866527 -0.1979288 -0.023717165 -0.061640847
0.035191007 -0.06923647 -0.13260654 0.077697955 0.18829218 0.37173435 0.21767488 -0.004245663
0.059377145 0.2147288 0.28464076 0.24938259 0.06838493 -0.008169219 0.09452317 0.21718818
0.14272211 -0.095357716 -0.15570143 -0.078584656 -0.030895837 0.092112556 -0.074815854 0.007989215
0.046065316 0.08589082 0.076151714 -0.21625812 0.10208018 0.097690895 0.20300794 -0.10301712
-0.1679331 0.121437654 0.28334635 0.12101857 -0.2989841 -0.3136591 0.20084696 0.18377326
0.17689776 -0.22459471 -0.2821521 -0.15088294 -0.18723829 0.03850104 0.046368133 0.22206411
-0.15910515 -0.17900102 0.09404971 0.050037604 0.19017904 -0.17128205 0.09833418 0.002770194
0.08090642 0.09044402 -0.05718468 0.020243883 0.25592762 0.20538482 -0.0900875 -0.04902376
0.26741597 0.015821822 -0.008070412 -0.18023446 -0.08564917 0.018063689 -0.04846644 -0.15439796
0.0008812461 -0.08701679 -0.15956993 -0.14576262 -0.22628585 -0.16856444 0.15178013 -0.00014223967
-0.025615368 -0.25754812 -0.16307499 -0.040668048 -0.0049517043 -0.18913536 -0.15097001 -0.13197821
0.020935414 -0.08932389 -0.04044156 -0.1503387 -0.11335989 -0.11311918 -0.073310666 -0.1732669
0.08798067 -0.076064624 0.047901925 0.013320828 -0.15138523 0.028349517 -0.116208285 -0.15503305
-0.2135842 -0.26211643 -0.05226764 -0.09671506 0.051590174 -0.13040034 0.07719467 -0.16346385
0.003969722 0.07785878 0.09469545 0.11428459 0.17479697 -0.07895009 -0.04723968 -0.064183936
-0.0009699171 -0.014379025 0.06274506 -0.021599393 0.11806051 0.1269463 0.09719285 0.036490228
0.1129382 0.1439595 0.12826289 0.045857992 0.029731754 0.09481015 0.11816502 0.14132282
-0.0052795745 -0.12977843 -0.012714866 0.042520277 0.07717456 -0.048876163 -0.14212205 -0.039158735
0.031155989 0.13102016 0.055856925 -0.042214453 0.040564787 0.13837461 0.1660021 0.07187724
0.031690262 0.031906843 0.1153004 0.1658961 0.17485642 0.09939293 -0.0888716 0.034516636
0.19246295 0.27494118 0.1446901 -0.11909155 -0.059297323 0.075788334 0.11572165 0.15285823
-0.108280554 -0.078040026 0.13813968 0.030440992 -0.015205871 -0.13902196 -0.19510512 -0.19889037
-0.14259249 -0.010667197 0.043866847 0.02315038 -0.23260006 -0.1843371 -0.13417295 0.12224266
-0.002600693 -0.05290329 0.056343984 -0.11788482 -0.11279908 0.110440634 -0.123625346 -0.05674192
-0.17260271 0.118607566 0.11401739 0.08412507 -0.06238836 -0.13516097 -0.05051957 0.128207
0.07344524 0.042818952 -0.02876038 0.052344516 -0.04422968 -0.22150731 -0.25186563 -0.24304341
0.0018749645 -0.1673392 -0.1496486 -0.17248566 -0.11697094 -0.16819926 -0.1907987 -0.04807679
-0.11361619 0.052850284 -0.04584853 -0.16546293 0.0029257087 -0.13928047 0.01667508 -0.28998417
00000000: aeb5 a53c c10f 943d c97c 093d 0f9e ee3d
00000010: 047f bfbc 18da 273e 86e1 c23d 6a10 403e
00000020: 7869 393e cfe6 8d3c 8a2d 4c3e 5466 423e
00000030: 41b8 6b3e 60b0 403e a5f4 ad3d 8010 4f3d
00000040: 3355 b13d 1766 ecbc 73c1 fabd d1c0 08bd
00000050: 11e0 febd dc25 18be dc6c 01be 5b3b f5bc
00000060: 062b 25be 811a 9ebd 3bb1 cbbd a71b 22be
00000070: 2679 22be d9ad 4abe 804a c2bc 1d7b 7cbd
00000080: 7224 103d dacb 8dbd 02ca 07be 1b20 9f3d
00000090: aacf 403e f753 be3e 2ae6 5e3e 341f 8bbb
000000a0: 7335 733d dee1 5b3e 6fbc 913e 265e 7f3e
000000b0: 660d 8c3d 30d8 05bc 5d95 c13d 9466 5e3e
000000c0: bf25 123e e84a c3bd 3270 1fbe fef0 a0bd
000000d0: 4419 fdbc 82a5 bc3d 0e39 99bd 32e5 023c
000000e0: fcae 3c3d 87e7 af3d 6ef5 9b3d c572 5dbe
000000f0: 6a0f d13d 2a12 c83d 50e1 4f3e a4fa d2bd
00000100: a8f6 2bbe 4eb4 f83d c612 913e 96d8 f73d
00000110: 7214 99be ed97 a0be d3aa 4d3e 0f2f 3c3e
00000120: b024 353e 28fc 65be 3d76 90be 0f81 1abe
00000130: 65bb 3fbe 44b3 1d3d 83ec 3d3d c664 633e
00000140: 76ec 22be 0b4c 37be 229d c03d 3bf4 4c3d
00000150: 4bbe 423e 9064 2fbe 6e63 c93d 258c 353b
00000160: 44b2 a53d b73a b93d 7c3a 6abd 80d6 a53c
00000170: f208 833e 6650 523e cc7f b8bd 23cd 48bd
00000180: bfea 883e c49c 813c c339 04bc 628f 38be
00000190: d568 afbd 4dfa 933c bf84 46bd 801a 1ebe
000001a0: 6d03 673a dc35 b2bd 4d66 23be cc42 15be
000001b0: 7ab7 67be 289c 2cbe 406c 1b3e 2c26 15b9
000001c0: 52d7 d1bc 59dd 83be 21fd 26be 8a93 26bd
000001d0: e841 a2bb b3ac 41be e297 1abe 4c25 07be
000001e0: bf80 ab3c 72ef b6bd 0da6 25bd 63f2 19be
000001f0: 3b29 e8bd 07ab e7bd e723 96bd e16c 31be
00000200: 362f b43d c5c7 9bbd cf34 443d 9a3f 5a3c
00000210: bb04 1bbe 3f3d e83c 9cfe edbd fcc0 1ebe
00000220: d1b5 5abe 2034 86be 9816 56bd 8c12 c6bd
00000230: 3850 533d ab87 05be 3d18 9e3d 1163 27be
00000240: 7114 823b 6d74 9f3d b0ef c13d 0a0e ea3d
00000250: fafd 323e 96b0 a1bd 657e 41bd de72 83bd
00000260: 0942 7eba 0196 6bbc 7b80 803d 36f1 b0bc
00000270: b5c9 f13d 36fe 013e 0c0d c73d c776 153d
00000280: 254c e73d 1f6a 133e 5957 033e 97d5 3b3d
00000290: 0290 f33c d32b c23d 8100 f23d eeb6 103e
000002a0: 4800 adbb a3e4 04be 0352 50bc be29 2e3d
000002b0: b20d 9e3d 5f32 48bd 7188 11be e964 20bd
000002c0: d83a ff3c 262a 063e 3bca 643d 10e9 2cbd
000002d0: 4327 263d 13b2 0d3e 74fc 293e 6034 933d
000002e0: a6cd 013d c0b0 023d 9e22 ec3d abe0 293e
000002f0: 900d 333e 858e cb3d 5002 b6bd 5161 0d3d
00000300: 0215 453e 17c5 8c3e a429 143e 45e6 f3bd
00000310: c0e1 72bd ea36 9b3d 79ff ec3d de86 1c3e
00000320: 32c2 ddbd 73d3 9fbd 7d74 0d3e 635f f93c
00000330: 0c22 79bc c65b 0ebe a3c9 47be eba9 4bbe
00000340: c403 12be 78c5 2ebc b9ad 333d dea5 bd3c
00000350: b62e 6ebe ddc2 3cbe a264 09be 5c5a fa3d
00000360: 6370 2abb 1fb1 58bd f3c8 663d 996d f1bd
00000370: 3403 e7bd b32e e23d 492f fdbd 376a 68bd
00000380: c4be 30be 86e8 f23d f381 e93d c449 ac3d
00000390: f08a 7fbd a367 0abe 9ced 4ebd b248 033e
000003a0: 756a 963d ed62 2f3d e39a ebbc 3467 563d
000003b0: 2e2a 35bd d0d2 62be 88f4 80be 5fe0 78be
000003c0: 5ec1 f53a f85a 2bbe 7c3d 19be 15a0 30be
000003d0: 768e efbd 6d3c 2cbe bc60 43be 2bec 44bd
000003e0: 9baf e8bd 8a79 583d abcb 3bbd 1d6f 29be
000003f0: 3fbd 3f3b 8a9f 0ebe 2d9a 883c ce78 94be

cnn.cnn_layers.0.bias f4 [16]
-0.14033632 0.12410667 0.1487223 0.0653357 -0.104663424 -0.23820913 -0.31142226 -0.15376641
-0.13599864 0.02411222 -0.034517717 -0.13506098 0.27677742 0.024967033 0.1051763 0.0018262499
00000000: 53b4 0fbe a32b fe3d a94a 183e b9ce 853d
00000010: c759 d6bd 18ed 73be bd72 9fbe f174 1dbe
00000020: 3a43 0bbe fe86 c53c 7362 0dbd 6d4d 0abe
00000030: c5b5 8d3e aa87 cc3c ac66 d73d c75e ef3a

cnn.cnn_layers.2.weight f4 [32, 16, 3, 3]
0.005170974 0.07078747 -0.012873433 -0.029036455 0.08544024 0.035513 -0.034964465 0.08633917
0.090639554 -0.0030993633 0.011052335 -0.07004124 0.0037228588 0.032183867 0.10587809 0.020673167
0.0133079225 0.017313587 -0.02498082 0.003804656 -0.008857032 -0.039952993 -0.043080818 0.0120619
0.018289741 0.063903145 0.02576307 0.079579905 0.098063216 0.027381638 0.0025270076 0.12934935
0.14195049 -0.00080887444 0.055074494 -0.012457999 -0.029736325 0.033236377 0.04170462 0.026243689
-0.010686224 0.08408229 0.011558188 -0.030867146 0.021795627 0.07503206 0.10559887 -0.015851384
0.061335642 0.02310951 0.021049568 0.00070724305 0.082989 0.048452403 0.064510316 0.030706845
0.08728097 0.04741779 0.009240322 0.09136911 -0.025702981 -0.012490168 0.003489117 -0.05066424
-0.036037873 -0.08463394 -0.112957835 -0.0927285 -0.11644178 -0.059628293 -0.0058966116 -0.06458116
0.06492589 0.08753462 0.027929306 0.020978974 0.03589149 0.008150327 -0.03367709 0.0037949295
0.04390008 0.09345057 0.00536369 0.0025017334 0.053724024 0.059628006 0.10434727 0.07055471
0.09712435 0.076344565 -0.076382965 0.010759203 0.0348374 0.07376622 0.09837907 0.01844299
0.050265197 0.01874081 -0.013705704 -0.03828306 0.097366266 -0.04675754 0.09136089 0.01232072
0.02166135 0.059836935 0.011769933 0.08312768 0.02731632 -0.04386866 0.038862176 0.044039767
0.038846474 0.034461293 0.026476093 -0.0017954288 -0.03771441 0.06785578 0.07322148 0.0060519
-0.07315123 -0.009235206 -0.072016425 0.050135516 -0.025443653 0.0113922125 -0.0012505741 0.041107085
0.05797546 0.021440616 0.06443837 0.0788012 0.070888594 0.019284451 0.00764663 0.06169807
-0.027543653 0.021166848 -0.05615109 -0.07780175 -0.003556389 0.014824021 -0.012191479 -0.003650306
0.038126454 0.05002167 -0.0011541367 -0.08212894 -0.071002774 -0.047551453 -0.077317335 -0.078151375
-0.077204674 -0.058905855 -0.0470506 -0.062120717 -0.072583 -0.013118248 0.09555974 -0.036302328
-0.027212417 0.050032128 -0.037604503 -0.06102113 0.029765628 -0.073567525 -0.0134483315 0.090988904
0.01568714 0.027617639 -0.031043308 0.023143139 0.022616243 0.06799565 0.022294214 0.01874885
-0.0539384 0.00074530573 -0.041478436 -0.047011618 0.013833265 -0.06924277 0.04709105 0.01007954
-0.048112914 0.021138707 -0.06539616 -0.03566405 -0.017636072 -0.09394563 -0.09123077 -0.030094415
0.03187791 0.06405495 0.023130044 -0.043104336 -0.03613723 0.037121356 0.010521836 -0.040158797
-0.011391667 -0.09495807 -0.08874467 0.04176389 -0.036171988 -0.06482714 -0.09601957 -0.05340703
-0.02367813 -0.07357454 -0.024219507 0.0032052698 -0.065369554 0.0023209725 -0.076344505 -0.063872814
0.054733556 0.074611254 -0.035091612 -0.019442618 -0.079548314 -0.048076183 -0.061316025 -0.018790834
0.033256244 -0.07649118 0.06581389 0.04005174 -0.054599263 -0.05155023 -0.0020061499 -0.010957255
-0.053529326 -0.071531564 0.06969939 -0.010726994 0.085415065 -0.016927514 0.008466397 0.04769405
-0.037929222 -0.036735754 0.002940816 0.07719521 -0.040071856 0.02091874 -0.056386802 0.051005363
0.04507955 0.014670306 0.0465593 0.00072019506 0.093755156 0.016130507 0.028624661 0.046238814
00000000: 4671 a93b 05f9 903d 17eb 52bc dcdd edbc
00000010: 4bfb ae3d 1476 113d e636 0fbd 97d2 b03d
00000020: 3ba1 b93d b01e 4bbb da14 353c c871 8fbd
00000030: 35fb 733b 3bd3 033d 9dd6 d83d c65a a93c
00000040: 7909 5a3c 39d5 8d3c 94a4 ccbc 8957 793b
00000050: 161d 11bc c0a5 23bd 8375 30bd 479f 453c
00000060: 5ed4 953c a7df 823d 130d d33c cafa a23d
00000070: 5ed5 c83d 754f e03c 279c 253b 2874 043e
00000080: 785b 113e a50a 54ba cb95 613d a31c 4cbc
00000090: 9899 f3bc de22 083d 77d2 2a3d 01fd d63c
000000a0: 4615 2fbc 5633 ac3d 8e5e 3d3c 19dd fcbc
000000b0: be8c b23c 69aa 993d 3844 d83d c3da 81bc
000000c0: 153b 7b3d 2850 bd3c 2570 ac3c 4766 393a
000000d0: 23f6 a93d 0776 463d fc1d 843d ec8c fb3c
000000e0: 5dc0 b23d 2839 423d b864 173c ba1f bb3d
000000f0: 0f8f d2bc 90a3 4cbc aba9 643b 4e85 4fbd
00000100: 739c 13bd 8f54 adbd 7056 e7bd 71e8 bdbd
00000110: 0779 eebd cc3c 74bd 5d38 c1bb 2143 84bd
00000120: ddf7 843d 5a45 b33d 00cc e43c 19dc ab3c
00000130: f402 133d f388 053c fdf0 09bd 5ab4 783b
00000140: 92d0 333d 0363 bf3d e5c1 af3b 1ff4 233b
00000150: b90d 5c3d 7f3c 743d 06b4 d53d fd7e 903d
00000160: 22e9 c63d 8a5a 9c3d ac6e 9cbd 5e47 303c
00000170: a9b1 0e3d be12 973d f77a c93d c115 973c
00000180: e1e2 4d3d 5486 993c e48d 60bc b3ce 1cbd
00000190: f767 c73d d684 3fbd 6b1b bb3d d8dc 493c
000001a0: 2573 b13c 9317 753d add6 403c d83e aa3d
000001b0: 7ac6 df3c a0af 33bd f22d 1f3d 0b63 343d
000001c0: 7b1d 1f3d 4927 0d3d 64e4 d83c 9854 ebba
000001d0: 6d7a 1abd f9f7 8a3d 25f5 953d 044f c63b
000001e0: 50d0 95bd 434f 17bc 597d 93bd e65a 4d3d
000001f0: 356f d0bc 67a6 3a3c 4eea a3ba e75f 283d
00000200: ad77 6d3d 3ba4 af3c 44f8 833d 8662 a13d
00000210: 0a2e 913d 6dfa 9d3c 9590 fa3b 1eb7 7c3d
00000220: 3aa3 e1bc 1966 ad3c affe 65bd 8656 9fbd
00000230: 4e12 69bb 73e0 723c c5be 47bc f939 6fbb
00000240: 7c2a 1c3d 86e3 4c3d 6746 97ba 3833 a8bd
00000250: e769 91bd 50c5 42bd 8d58 9ebd d40d a0bd
00000260: 7c1d 9ebd 4447 71bd 21b8 40bd 4b72 7ebd
00000270: 65a6 94bd eced 56bc d3b4 c33d c0b1 14bd
00000280: 93ec debc 7dee 4c3d 2e07 1abd 4bf1 79bd
00000290: 0cd7 f33c 92aa 96bd 6456 5cbc 6458 ba3d
000002a0: 5182 803c 633e e23c 894e febc ae96 bd3c
000002b0: b345 b93c 4e41 8b3d 5ba2 b63c 3097 993c
000002c0: 83ee 5cbd 9f60 433a 4be5 29bd 418f 40bd
000002d0: eba4 623c 27cf 8dbd 8be2 403d a824 253c
000002e0: 0c12 45bd 152b ad3c 6cee 85bd 7814 12bd
000002f0: 8679 90bc 9166 c0bd 33d7 babd 9088 f6bc
00000300: 6992 023d 3e2f 833d 387b bd3c 2c8e 30bd
00000310: a204 14bd 900c 183d c763 2c3c 8d7d 24bd
00000320: 1da4 3abc 6079 c2bd c4bf b5bd 9d10 2b3d
00000330: 1429 14bd 17c4 84bd e9a5 c4bd 54c1 5abd
00000340: a3f8 c1bc 40ae 96bd fd67 c6bc 810f 523b
00000350: 79e0 85bd 751b 183b 825a 9cbd c0cf 82bd
00000360: 4b30 603d c9cd 983d 39bc 0fbd 2046 9fbc
00000370: 3aea a2bd 88eb 44bd 8326 7bbd 3cef 99bc
00000380: b337 083d 68a7 9cbd 6fc9 863d 4b0d 243d
00000390: 7aa3 5fbd 5526 53bd 9c79 03bb 0f86 33bc
000003a0: 9141 5bbd 247f 92bd 8ebe 8e3d 46c0 2fbc
000003b0: 18ee ae3d 92ab 8abc a5b6 0a3c d65a 433d
000003c0: ac5b 1bbd 3b78 16bd b5ba 403b 8618 9e3d
000003d0: 6322 24bd c75d ab3c d9f5 66bd 00eb 503d
000003e0: 56a5 383d b95b 703c f7b4 3e3d 79cb 3c3a
000003f0: b402 c03d 2024 843c 447e ea3c e964 3d3d

cnn.cnn_layers.2.bias f4 [32]
0.06896547 0.16421181 0.12895228 -0.019704543 -0.07088127 -0.051530827 -0.13214366 0.104815856
0.11498016 -0.12110765 -0.13345563 0.025792582 -0.069382556 0.15661973 -0.13233484 0.07441629
-0.09438659 0.17879318 -0.07907837 0.17149153 0.008574181 0.14696889 0.15722577 0.026587473
-0.002565778 -0.08159272 0.07404115 0.12767422 0.17130499 -0.09898626 -0.13313448 0.02420451
00000000: c53d 8d3d 2427 283e 110c 043e 6c6b a1bc
00000010: 332a 91bd fd11 53bd ab50 07be b2a9 d63d
00000020: b87a eb3d 4a07 f8bd 98a8 08be f74a d33c
00000030: 7118 8ebd ec60 203e c982 07be 9167 983d
00000040: c24d c1bd 8f15 373e d7f3 a1bd 7a9b 2f3e
00000050: b97a 0c3c 037f 163e cbff 203e f9cd d93c
00000060: 9d26 28bb 151a a7bd e3a2 973d 08bd 023e
00000070: 936a 2f3e 4fb9 cabd 6854 08be 8948 c63c

cnn.cnn_layers.4.weight f4 [64, 32, 3, 3]
-0.044145275 -0.0014728116 0.00030715927 -0.035779957 -0.043062735 0.021975743 -0.04145826 0.0373076
-0.0077622407 0.020621432 -0.0027320976 -0.039360005 0.02239407 -0.05855718 -0.019457823 -0.061126627
-0.039375156 0.01030389 0.024257934 -0.034647662 0.039846998 0.08285476 0.0022263804 -0.020618869
-0.020076318 -0.092782654 -0.064548425 0.004156184 0.010157969 -0.022895835 -0.04607365 0.016328998
0.018152993 -0.019657332 0.04956602 -0.038077697 0.04152329 0.01103675 -0.0108674895 0.062865995
-0.0523434 -0.010604169 0.026179003 0.012603054 -0.013291395 0.0050311764 0.010562901 0.037172146
0.029415093 0.020197757 0.03546292 0.018353574 0.020427091 0.027099758 -0.03544858 0.04002117
0.05454943 -0.018051716 0.045939047 0.0016324543 -0.015369731 0.040519413 -0.03923307 -0.007646462
-0.021804644 -0.054274134 -0.06765956 -0.036281966 0.045425095 -0.039490297 0.013295272 0.038763694
-0.056109685 0.02239376 0.016786698 -0.06073668 -0.030326314 -0.06317466 0.019914232 0.034802344
0.023904981 0.042255994 0.0870822 0.07349774 0.008804343 -0.010299636 0.049985822 0.018173369
0.011689066 -0.004669601 0.03054881 0.044791896 0.026578095 -0.012626776 0.08543776 -0.01158844
0.02901254 0.040116783 0.032938987 0.043934856 0.0022138734 0.020006416 0.050453167 -0.01236243
-0.0076388624 -0.046279512 0.015273019 -0.022060947 0.016105158 0.028103258 -0.063398704 -0.02654387
0.08071669 -5.484953e-05 0.042562816 0.07917994 0.0099362675 -0.047580592 0.04063063 0.01200825
0.022520516 0.0007560632 -0.0053886105 -0.031591352 -0.017470125 -0.017317947 0.053797413 -0.02712094
-0.06443457 -0.03209737 -0.044208635 0.022576947 0.022249069 0.032344084 0.0020210587 0.0024500028
-0.038518798 0.03519338 -0.05066902 -0.009255187 0.0101612825 0.010989218 -0.019143447 0.045125403
-0.051540498 0.022661313 0.06377924 -0.013535625 0.007040825 -0.04661571 -0.019692296 -0.014533656
-0.024935879 -0.026821923 0.030771205 -0.06306287 0.06511476 -0.082670584 -0.013593286 0.059726886
0.055447135 -0.041657075 -0.077588916 -0.033509824 0.0629346 0.0016157104 0.055107642 -0.027405132
-0.03658766 0.045927614 0.029922146 -0.026705896 0.023089552 -0.05923177 -0.023620527 -0.032741748
-0.03210843 -0.020640561 -0.061781093 -0.01060636 0.012852622 0.012306832 -0.021203006 -0.025627136
0.0011349535 -0.019934377 -0.019810416 0.00837762 -0.051855944 -0.048715368 0.045302894 0.032156907
-0.00048027252 -0.029556887 0.03222024 0.030447537 0.020657359 0.03344554 0.07868114 0.0022977772
-0.046544213 0.0022994769 -0.046165742 -0.077170976 0.03988807 -0.077278934 -0.0690094 -0.0795275
-0.037557084 0.029356118 0.014509565 -0.06336054 0.027352791 -0.037061874 0.014417126 0.03877871
-0.0402401 -0.022487229 0.054340843 -0.083530255 -0.05531971 -0.04614821 0.04696986 0.027252821
-0.013606118 0.046415433 0.07486579 0.02934587 -0.06902493 -0.013858983 0.0672321 0.061057206
0.019214392 0.046988137 -0.03662821 0.04322763 0.0017545979 0.010562457 -0.07870627 0.0045369263
0.010890494 -0.017904779 -0.035810273 -0.0014291089 0.03434396 -0.038118877 -0.020472495 0.020846412
0.053705648 -0.005715551 -0.016554816 0.039279163 0.008392132 -0.015890947 -0.011460167 0.03216978
00000000: add1 34bd 5b0b c1ba 380a a139 018e 12bd
00000010: 8d62 30bd 7906 b43c 23d0 29bd dbcf 183d
00000020: 655a febb 47ee a83c fe0c 33bb f537 21bd
00000030: c573 b73c a7d9 6fbd 0366 9fbc ea5f 7abd
00000040: d847 21bd a6d1 283c 93b8 c63c b5ea 0dbd
00000050: 9b36 233d c2af a93d 77e8 113b e7e8 a8bc
00000060: 1777 a4bc d504 bebd f731 84bd 9930 883b
00000070: 9c6d 263c 0c90 bbbc b9b7 3cbd 64c4 853c
00000080: 96b5 943c 6a08 a1bc bd05 4b3d 5cf7 1bbd
00000090: 5314 2a3d 7cd3 343c 8e0d 32bc e3bf 803d
000000a0: 0866 56bd 1cbd 2dbc 5975 d63c 0a7d 4e3c
000000b0: 27c4 59bc 91dc a43b 0510 2d3c d241 183d
000000c0: ecf7 f03c c475 a53c 9141 113d 3c5a 963c
000000d0: b756 a73c 5000 de3c 8832 11bd 3ded 233d
000000e0: 396f 5f3d 31e1 93bc 952a 3c3d 14f8 d53a
000000f0: 53d1 7bbc aff7 253d dbb2 20bd 2c8f fabb
00000100: a79f b2bc 8e4e 5ebd 1891 8abd 669c 14bd
00000110: aa0f 3a3d 94c0 21bd 6ad4 593c aec6 1e3d
00000120: 45d3 65bd 1e73 b73c 4284 893c 06c7 78bd
00000130: e46e f8bc b761 81bd 2c23 a33c e78c 0e3d
00000140: 61d4 c33c 9f14 2d3d 2758 b23d fc85 963d
00000150: 1740 103c cebf 28bc efbd 4c3d 51e0 943c
00000160: 7f83 3f3c 7403 99bb 7f41 fa3c b577 373d
00000170: 4eba d93c 89e0 4ebc fef9 ae3d 71dd 3dbc
00000180: b5ab ed3c 7f51 243d 08eb 063d 09f5 333d
00000190: a216 113b 7fe4 a33c fba7 4e3d ca8b 4abc
000001a0: 6c4f fabb 968f 3dbd af3b 7a3c 29b9 b4bc
000001b0: f7ee 833c ce38 e63c 2ed7 81bd 8872 d9bc
000001c0: cb4e a53d 3c0e 66b8 5956 2e3d 1829 a23d
000001d0: bacb 223c dee3 42bd 4e6c 263d 40be 443c
000001e0: f27c b83c 8b32 463a f192 b0bb ef65 01bd
000001f0: 821d 8fbc 5ede 8dbc ad5a 5c3d bc2c debc
00000200: 46f6 83bd 8878 03bd 1d14 35bd 4af3 b83c
00000210: ae43 b63c 3b7b 043d bd73 043b 3a90 203b
00000220: e3c5 1dbd ef26 103d 518a 4fbd 11a3 17bc
00000230: 827b 263c 1f0c 343c b8d2 9cbc 6ad5 383d
00000240: 211c 53bd 38a4 b93c b19e 823d 87c4 5dbc
00000250: b9b6 e63b 1df0 3ebd bd51 a1bc 921e 6ebc
00000260: 5446 ccbc a6b9 dbbc e513 fc3c 1b27 81bd
00000270: e35a 853d 324f a9bd 60b6 5ebc 2ea4 743d
00000280: 891c 633d 9ca0 2abd f0e6 9ebd 9941 09bd
00000290: dbe3 803d 3fc6 d33a 8db8 613d ba80 e0bc
000002a0: f1dc 15bd 981e 3c3d 4a1f f53c 53c6 dabc
000002b0: 4d26 bd3c 039d 72bd d67f c1bc 361c 06bd
000002c0: 2184 03bd 6516 a9bc 2c0e 7dbd 4cc6 2dbc
000002d0: ce93 523c 98a2 493c edb1 adbc 00f0 d1bc
000002e0: b8c2 943a 6b4d a3bc 7449 a2bc 4942 093c
000002f0: e666 54bd c489 47bd 878f 393d f6b6 033d
00000300: 16cd fbb9 4921 f2bc 5ff9 033d 1d6d f93c
00000310: 9f39 a93c 31fe 083d 9423 a13d 4e96 163b
00000320: 25a5 3ebd d2b2 163b 4a18 3dbd d10b 9ebd
00000330: ac61 233d 6b44 9ebd cd54 8dbd 50df a2bd
00000340: 75d5 19bd 3e7c f03c 87b9 6d3c 2cc3 81bd
00000350: f612 e03c 31ce 17bd cf35 6c3c 6dd6 1e3d
00000360: ced2 24bd 2337 b8bc 8194 5e3d e911 abbd
00000370: ec96 62bd e805 3dbd 7863 403d 4f41 df3c
00000380: 32ec 5ebc 1c1e 3e3d 3c53 993d c066 f03c
00000390: f15c 8dbd ca10 63bc fcb0 893d 1f17 7a3d
000003a0: 8067 9d3c a276 403d 7607 16bd 750f 313d
000003b0: 89fa e53a 280e 2d3c c130 a1bd 7faa 943b
000003c0: 0b6e 323c 0bad 92bc cbad 12bd f050 bbba
000003d0: 41ac 0c3d 8a22 1cbd efb5 a7bc 18c6 aa3c
000003e0: 74fa 5b3d 8449 bbbb f79d 87bc 30e3 203d
000003f0: 277f 093c bb2d 82bc 6dc3 3bbc 76c4 033d

cnn.cnn_layers.4.bias f4 [64]
-0.078212544 0.0031193513 0.05196848 0.10443823 0.09309646 0.093243346 0.0060309083 0.061878577
-0.06900812 0.016432201 -0.09638635 -0.060276464 0.110074684 -0.07906794 0.1177509 0.14756265
-0.04058991 -0.025380071 0.059973635 -0.090540536 -0.0934968 0.11133256 -0.10489074 -0.1162283
-0.07054563 0.035637997 0.100817375 -0.032478824 0.06864068 0.1540075 -0.06998316 0.06861443
0.08186638 0.025590597 -0.04401804 -0.03581939 0.11913774 -0.04658865 -0.03603762 0.15049323
-0.05172821 0.08998957 0.053916954 -0.055219214 -0.019652879 0.1425068 0.109685004 -0.02147519
0.10448498 0.06737063 -0.05392397 0.11592429 -0.10525727 -0.0669302 -0.09635525 -0.0067590745
-0.09261469 0.07280803 -0.020012606 0.11690335 0.113719545 0.0805998 0.021880444 0.15817563
00000000: e62d a0bd 086e 4c3b e7dc 543d b6e3 d53d
00000010: 5ba9 be3d 5ef6 be3d ed9e c53b 6474 7d3d
00000020: 2154 8dbd d39c 863c 3566 c5bd 74e4 76bd
00000030: d66e e13d 5fee a1bd 6227 f13d aa1a 173e
00000040: 9b41 26bd dee9 cfbc eaa6 753d 516d b9bd
00000050: 407b bfbd 5302 e43d f5d0 d6bd 1a09 eebd
00000060: 3a7a 90bd 26f9 113d 5779 ce3d 8408 05bd
00000070: 7c93 8c3d 24b4 1d3e 5553 8fbd b985 8c3d
00000080: 90a9 a73d 5fa3 d13c 434c 34bd 5ab7 12bd
00000090: 7dfe f33d bed3 3ebd 2f9c 13bd e61a 1a3e
000000a0: f6e0 53bd 744c b83d 06d8 5c3d 8b2d 62bd
000000b0: 13ff a0bc 4ded 113e 88a2 e03d bdec afbc
000000c0: 39fc d53d 9df9 893d 61df 5cbd b769 ed3d
000000d0: 2091 d7bd b312 89bd e755 c5bd 3a7b ddbb
000000e0: c5ac bdbd 601c 953d 7af1 a3bc 066b ef3d
000000f0: cbe5 e83d 8211 a53d 9e3e b33c cbf8 213e

cnn.cnn_layers.6.weight f4 [64, 64, 3, 3]
0.010647491 -0.0047601378 0.027322425 0.047900744 0.0040259506 0.00017201713 0.014790602 -0.036348928
0.019221257 -0.03548633 0.012316279 0.007500507 -0.06396955 0.023098558 0.02937906 0.021778988
0.047232345 0.003579681 0.041639816 0.02497718 0.021695709 0.008144371 0.033103563 0.07269951
-0.097082496 -0.020918619 -0.03214837 -0.01385689 0.06423265 0.034905665 0.042331953 0.0782473
0.04144845 0.011489077 0.05167222 -0.027461765 -0.014151484 0.010085452 -0.008700436 -0.00037171048
0.023906318 -0.021714963 -0.045246296 0.013116881 0.04054563 0.022275347 0.037959192 0.08186804
0.06388186 0.056399588 0.013956013 -0.026861854 0.038371004 0.06005746 -0.010788974 -0.028958384
0.038336024 0.027924083 -0.022789422 -0.001329716 0.007920326 -0.021747764 -0.03713977 -0.019055178
0.033407334 0.044809736 0.030681403 -0.047901515 0.00048551653 0.016378174 0.027804453 0.01429981
0.00014587841 -0.049520835 -0.011198972 -0.004782826 -0.011562835 -0.06244547 0.028798176 0.019951804
0.032691196 0.03986253 -0.009914121 0.054378487 0.004602339 -0.06315779 -0.05091447 0.006109759
-0.054379795 -0.03406236 -0.0139835775 -0.05344208 -0.0074999835 0.021142824 -0.035313733 -0.054747622
-0.016150935 -0.037610196 -0.01235503 0.0060445224 -0.024147877 -0.0632091 -0.008158679 -0.008519524
-0.055685326 -0.042271156 0.01557535 0.03793374 -0.014609891 0.010052688 0.022712762 -0.00048441236
0.013363818 0.047423035 0.024089362 0.05806657 0.03130735 -0.018242508 -0.00918589 -0.027425637
-0.010487448 0.005540499 -0.020569017 0.028287329 0.02002727 0.024733549 -0.013996896 0.024810335
-0.007965348 0.08863892 0.061996818 0.027634826 0.00036986286 -0.017186739 0.027305957 0.055123813
0.089509174 0.019562593 -0.0048236903 0.032890815 2.9458466e-05 0.044055253 -0.010268846 0.002456247
-0.0057158624 0.050573226 0.008518191 -0.00031552496 0.020599429 0.024969552 0.026899956 -0.008196865
-0.003362622 -0.008801089 0.0075174654 -0.066739045 -0.035359167 -0.025791313 0.0116814785 -0.043170396
-0.035695788 0.0053880676 -0.008957254 0.08238711 0.01642369 0.05838479 -0.009240302 0.026246399
-0.017622601 0.016956154 0.05729287 -0.021382136 -0.10866533 0.025867572 -0.02785696 -0.058184396
-0.0674015 -0.019577919 -0.022547614 -0.016927123 0.016445966 -0.09590491 -0.018802866 -0.10051376
0.01583648 -0.002986173 -0.040523127 -0.018894408 0.008936896 0.020392787 0.034166418 0.03094548
0.07365306 0.06784738 0.085392706 -0.015592229 -0.02075418 0.03465539 0.023400836 -0.035074502
-0.00023178429 -0.00016275496 -0.02558205 -0.02350083 -0.010946239 -0.01979546 -0.022747917 0.009983886
-0.017271956 -0.039709494 -0.026665322 -0.043900065 0.043776914 0.040996257 -0.049380668 -0.039157014
0.016875867 -0.018209573 -0.009700806 -0.05362927 -0.05966133 0.0015426181 -0.039814234 -0.017780429
-0.0021241049 0.06585437 0.030977426 0.011530701 0.04893109 0.06369615 -0.0033016284 0.014430451
0.018263036 -0.012935684 0.041783437 0.026897468 0.0009738581 0.040239766 0.08010844 0.07547277
-0.017664326 -0.021496337 -0.026301812 -0.010662557 -0.07108075 0.0027570184 -0.04801206 -0.09072857
0.0018318597 -0.013075605 0.022178955 0.012089975 -0.006495012 0.0066017425 0.02205596 0.028905982
00000000: d072 2e3c eefa 9bbb 47d3 df3c 9233 443d
00000010: 1fec 833b 7f5f 3439 4854 723c 9de2 14bd
00000020: e675 9d3c 1d5a 11bd 38ca 493c d0c6 f53b
00000030: 7802 83bd 3039 bd3c 5bac f03c d969 b23c
00000040: b476 413d 1599 6a3b 838e 2a3d f19c cc3c
00000050: 33bb b13c f86f 053c 9a97 073d 7be3 943d
00000060: 30d3 c6bd 865d abbc 02ae 03bd 0208 63bc
00000070: 688c 833d 3ef9 0e3d 4564 2d3d 1f40 a03d
00000080: dac5 293d ae3c 3c3c 40a6 533d 7ff7 e0bc
00000090: a0db 67bc 743d 253c 468c 0ebc 23e2 c2b9
000000a0: 2fd7 c33c 94e3 b1bc 2e54 39bd 30e8 563c
000000b0: 2d13 263d ca7a b63c 197b 1b3d 6eaa a73d
000000c0: 7ed4 823d 4103 673d c3a7 643c 640d dcbc
000000d0: ea2a 1d3d d0fe 753d 3dc4 30bc 223a edbc
000000e0: 3c06 1d3d 0cc1 e43c e2b0 babc dd49 aeba
000000f0: 41c4 013c 5e28 b2bc df1f 18bd 9b19 9cbc
00000100: 21d6 083d 6a8a 373d 9157 fb3c 6134 44bd
00000110: ed8c fe39 852b 863c 2ac6 e33c c049 6a3c
00000120: f0f6 1839 5cd6 4abd e57b 37bc 41b9 9cbb
00000130: 0c72 3dbc d2c6 7fbd 27ea eb3c f771 a33c
00000140: 34e7 053d e446 233d d66e 22bc fabb 5e3d
00000150: 38cf 963b df58 81bd b18b 50bd 6034 c83b
00000160: 59bd 5ebd f984 0bbd 601b 65bc 15e6 5abd
00000170: 6cc2 f5bb b733 ad3c 22a5 10bd 0b3f 60bd
00000180: f74e 84bc 260d 1abd c06c 4abc 2111 c63b
00000190: c5d1 c5bc c673 81bd fbab 05bc 7995 0bbc
000001a0: 4c16 64bd 8524 2dbd c12f 7f3c 6960 1b3d
000001b0: 535e 6fbc 08b4 243c 1d10 ba3c baf8 fdb9
000001c0: eaf3 5a3c a83e 423d 0e57 c53c 36d7 6d3d
000001d0: 233c 003d 5071 95bc 6a80 16bc bbab e0bc
000001e0: 8cd3 2bbc 138d b53b 5b80 a8bc d4ba e73c
000001f0: 3b10 a43c 039e ca3c 3d53 65bc 0b3f cb3c
00000200: 1781 02bc 5288 b53d 60f0 7d3d 6e62 e23c
00000210: 27ea c139 34cb 8cbc beb0 df3c 82c9 613d
00000220: 9650 b73d bb41 a03c 0c10 9ebb 85b8 063d
00000230: 931d f737 4873 343d a93e 28bc fdf8 203b
00000240: 214c bbbb df25 4f3d e28f 0b3c 0b6d a5b9
00000250: 22c0 a83c f28c cc3c 4c5d dc3c 254c 06bc
00000260: 705f 5cbb 7132 10bc 1255 f63b 7bae 88bd
00000270: c6d4 10bd 4e48 d3bc ac63 3f3c 71d3 30bd
00000280: bf35 12bd 638e b03b 72c1 12bc 93ba a83d
00000290: f98a 863c e424 6f3d a364 17bc b002 d73c
000002a0: 465d 90bc a2e7 8a3c eeab 6a3d 9729 afbc
000002b0: ee8b debd 3be8 d33c 4834 e4bc c352 6ebd
000002c0: cc09 8abd df61 a0bc c6b5 b8bc c0aa 8abc
000002d0: b1b9 863c cb69 c4bd 7808 9abc 28da cdbd
000002e0: 81bb 813c abb3 43bb 94fb 25bd 72c8 9abc
000002f0: 0f6c 123c c60e a73c 16f2 0b3d 6081 fd3c
00000300: 6ad7 963d 91f3 8a3d 5fe2 ae3d 8c76 7fbc
00000310: ac04 aabc cff2 0d3d 1cb3 bf3c 48aa 0fbd
00000320: 1f0b 73b9 34a9 2ab9 7391 d1bc d084 c0bc
00000330: db57 33bc 172a a2bc d759 babc 7493 233c
00000340: eb7d 8dbc 6ca6 22bd 3c71 dabc 8ed0 33bd
00000350: 6c4f 333d b1eb 273d 6243 4abd 1b63 20bd
00000360: 423f 8a3c 3e2c 95bc 21f0 1ebc 5eaa 5bbd
00000370: 705f 74bd ad31 ca3a 4014 23bd 43a8 91bc
00000380: 9134 0bbb a8de 863d 5fc4 fd3c 44eb 3c3c
00000390: f76b 483d 2173 823d 2260 58bb b36d 6c3c
000003a0: 5d9c 953c 31f0 53bc 1c25 2b3d 1458 dc3c
000003b0: 834a 7f3a 74d2 243d e50f a43d 7891 9a3d
000003c0: c7b4 90bc 1619 b0bc e676 d7bc 01b2 2ebc
000003d0: c992 91bd 18af 343b 4ba8 44bd e7cf b9bd
000003e0: 031b f03a 103b 56bc a4b0 b53c 0815 463c
000003f0: 1cd4 d4bb 6e53 d83b b3ae b43c 3dcc ec3c

cnn.cnn_layers.6.bias f4 [64]
0.08275575 -0.060805295 0.06560754 -0.056218192 -0.07849942 0.0687092 0.09361415 0.08711206
0.09652906 0.050391138 0.08593219 0.056941494 0.10254204 -0.06602013 0.025663929 0.06461835
-0.067534186 0.05508932 0.08863116 -0.00079436705 0.030971572 0.034169957 0.1287298 0.124148294
0.0152684245 -0.018830618 0.033421982 -0.055394065 0.04126172 0.088149436 0.106221214 0.09307921
0.060282104 0.0067988657 0.0014888409 0.043089632 0.08741014 -0.06968515 -0.07696956 0.027026983
-0.04946385 -0.019453023 -0.011996249 0.02846473 -0.04153939 0.027460108 0.039620407 0.10314469
0.029035019 0.08127757 -0.012306121 0.08551236 0.043770272 0.07997855 0.058372334 -0.079261295
0.026198655 0.014193767 0.10376649 -0.026702542 0.028850127 -0.04189701 -0.10958349 -0.026959274
00000000: d97b a93d f90e 79bd 3f5d 863d 0c45 66bd
00000010: 4ec4 a0bd 69b7 8c3d c7b8 bf3d cf67 b23d
00000020: 07b1 c53d f066 4e3d 37fd af3d 7c3b 693d
00000030: 9001 d23d 9035 87bd 293d d23c a056 843d
00000040: 5d4f 8abd 57a5 613d 4184 b53d 123d 50ba
00000050: 18b8 fd3c ccf5 0b3d bfd1 033e 7641 fe3d
00000060: 6a28 7a3c ab42 9abc 7de5 083d e3e4 62bd
00000070: 0d02 293d b187 b43d 828a d93d 50a0 be3d
00000080: 5eea 763d 05c9 de3b 3625 c33a c17e 303d
00000090: 1604 b33d 17b7 8ebd 37a2 9dbd b167 dd3c
000000a0: 9b9a 4abd f25b 9fbc ea8b 44bc de2e e93c
000000b0: 3525 2abd 05f4 e03c 0249 223d 863d d33d
000000c0: d9da ed3c db74 a63d 9d9f 49bc 1b21 af3d
000000d0: 7548 333d cbcb a33d d417 6f3d bf53 a2bd
000000e0: 909e d63c f98c 683c 8783 d43d 4abf dabc
000000f0: 1a57 ec3c 339c 2bbd 4f6d e0bd b2d9 dcbc

cnn.cnn_layers.9.weight f4 [64, 256]
-0.04510886 -0.0047193705 0.006693021 0.00687131 -0.034724843 -0.056619324 0.036288995 -0.03407518
0.0041624517 0.034650575 0.037410956 0.082246475 -0.04183848 -0.011978398 0.07688994 0.0587306
0.055799518 0.07837697 0.011476801 0.0880312 0.045765348 0.028301792 -0.025726093 -0.009182392
-0.015203539 -0.048038967 -0.0690311 0.09906315 0.06293615 0.035956882 0.05738052 0.052341323
0.04304274 0.0079153655 0.04865556 0.048785508 0.010274896 0.0021907329 -0.011827892 -0.010319418
-0.0026432157 -0.06209265 -0.027078921 0.0076205246 0.049166426 -0.006580903 0.034107286 -0.038815122
-0.028184373 0.041899778 -0.01563473 -0.002039538 0.05949555 0.008195387 -0.03930061 0.074078195
-0.0432404 -0.05789492 -0.0010435384 -0.021889871 0.0029380687 0.02799568 -0.0026075891 -0.009318342
-0.06499952 -0.008823421 -0.0021576772 0.053051263 -0.0018843969 -0.03934865 0.0629593 -0.038076516
0.049596127 -0.058510214 -0.055428434 -0.031607576 0.017482353 -0.042627696 0.0065900236 0.038013313
-0.042778138 0.013396586 -0.058153484 -0.01612335 0.040875133 -0.04709191 0.008488637 -0.038695246
0.004930638 0.052793436 -0.0353152 -0.053173147 -0.07672226 -0.0359061 -0.008454251 0.021579033
-0.04165324 0.05019311 0.03777645 -0.044898674 0.07557142 -0.045704644 0.08366795 0.058165547
0.041449364 0.067374595 0.013899748 -0.029094312 0.023499506 0.067373395 0.067650385 0.062347714
-0.059048582 0.00065372896 0.008755716 0.062813655 -0.0386336 -0.05431935 -0.027821014 -0.008330322
-0.006063088 0.0047595515 0.010439255 0.024281548 -0.020950869 0.021702524 0.0286651 -0.057728693
0.021358525 0.03910678 -0.01036327 0.018390449 0.015965635 -0.040370483 0.02492111 0.043987386
-0.046618402 0.07431641 -0.015584024 -0.045099847 0.015711658 -0.0063495776 -0.028932238 0.013861955
0.044158943 -0.060172144 -0.0022049064 0.015271801 -0.02873858 -0.014113473 0.013280173 -0.054643273
0.060877625 0.02523064 0.04137245 0.08370851 0.020902364 -0.024977745 -0.03619967 -0.029758222
0.058897495 -0.05462205 0.03669275 0.000109394154 0.065321535 -0.0673112 0.050302822 -0.046598468
0.07398704 -0.05077446 0.038705576 -0.041130222 0.043939427 -0.0007879159 -0.017456632 -0.048886184
0.062274724 -0.019199787 0.07587128 0.077066965 0.039956346 -0.041370247 0.028275404 -0.028447656
0.018785799 0.048953936 0.01838872 0.02407836 -0.0054163877 -0.017842717 0.026701579 0.02543149
-0.016118746 -0.06628694 -0.033925354 -0.04025705 -0.011500258 -0.026824087 -0.004912674 0.015858326
-0.0063239904 0.044072416 0.068754844 0.030877398 -0.07845282 -0.058847107 -0.022904908 -0.002715093
0.033058483 -0.057408523 0.051171776 -0.03882615 0.061017964 -0.01573529 0.018171174 0.040242504
0.023478383 0.051147122 0.04725923 0.007021735 0.010865577 -0.010206032 0.05248083 0.02625154
-0.007049114 -0.0027033743 -0.025990846 0.07578279 -0.024510127 0.030949853 0.054509945 0.1142775
0.012952413 0.03279638 -0.035372853 -0.027572488 -0.031690847 0.041350458 -0.027394062 -0.019462507
0.016324524 0.009102962 0.050338414 -0.034051865 0.0035854615 -0.03261475 0.0680998 0.05782184
0.016839296 -0.038301878 0.00045200044 0.04810505 0.044643752 -0.013693577 0.06957127 0.042854518
00000000: 11c4 38bd f3a4 9abb 2151 db3b ba28 e13b
00000010: a33b 0ebd aae9 67bd c5a3 143d 6a92 0bbd
00000020: 2d65 883b c3ed 0d3d 3b3c 193d d770 a83d
00000030: d35e 2bbd 0b41 44bc 7978 9d3d 7f8f 703d
00000040: 098e 643d 1b84 a03d 3109 3c3c b449 b43d
00000050: 7274 3b3d 29d9 e73c 87bf d2bc be71 16bc
00000060: 4418 79bc 82c4 44bd 2d60 8dbd 9fe1 ca3d
00000070: abe4 803d 8647 133d d607 6b3d db63 563d
00000080: 964d 303d 73af 013c 0d4b 473d 50d3 473d
00000090: 0a58 283c 6692 0f3b c6c9 41bc c712 29bc
000000a0: cd39 2dbb dd54 7ebd 9dd4 ddbc 98b5 f93b
000000b0: bc62 493d 9ea4 d7bb 15b4 0b3d 9bfc 1ebd
000000c0: eae2 e6bc 1a9f 2b3d 6814 80bc c5a9 05bb
000000d0: 9bb1 733d f245 063c adf9 20bd 4fb6 973d
000000e0: d81c 31bd 3923 6dbd 57c7 88ba 6352 b3bc
000000f0: 9d8c 403b 3257 e53c 16e4 2abb f6ab 18bc
00000100: 781e 85bd 1c90 10bc d167 0dbb 484c 593d
00000110: defd f6ba 0d2c 21bd cef0 803d 1ff6 1bbd
00000120: 4f25 4b3d 68a8 6fbd ed08 63bd f276 01bd
00000130: 2737 8f3c 619a 2ebd 20f1 d73b d9b3 1b3d
00000140: 2138 2fbd 5b7d 5b3c 5932 6ebd 1e15 84bc
00000150: af6c 273d 72e3 40bd ed13 0b3c e87e 1ebd
00000160: 3091 a13b ee3d 583d aca6 10bd 16cc 59bd
00000170: 8f20 9dbd 4612 13bd b383 0abc 83c6 b03c
00000180: 969c 2abd 4a97 4d3d 7bbb 1a3d ace7 37bd
00000190: 30c5 9a3d cb34 3bbd 1a5a ab3d ff3e 6e3d
000001a0: cfc6 293d b1fb 893d c5bb 633c 3257 eebc
000001b0: 0982 c03c 10fb 893d 498c 8a3d 5160 7f3d
000001c0: eddc 71bd 025f 2b3a 2274 0f3c 72a4 803d
000001d0: 443e 1ebd f77d 5ebd e5e8 e3bc e77b 08bc
000001e0: deac c6bb 03f6 9b3b 6909 2b3c 19ea c63c
000001f0: 28a1 abbc 7ec9 b13c 12d3 ea3c ec74 6cbd
00000200: 13f8 ae3c 6e2e 203d b4ca 29bc 91a7 963c
00000210: 5dca 823c 855b 25bd 5b27 cc3c 1e2c 343d
00000220: f0f2 3ebd 3433 983d 2254 7fbc 9eba 38bd
00000230: bcb5 803c 1e10 d0bb 4d03 edbc 411d 633c
00000240: 02e0 343d 1177 76bd 3180 10bb 9336 7a3c
00000250: 2c6d ebbc 323c 67bc 1595 593c a0d1 5fbd
00000260: d15a 793d 7db0 ce3c 2876 293d 5e6f ab3d
00000270: 6f3b ab3c 219e ccbc 1b46 14bd 84c7 f3bc
00000280: 803e 713d 5fbb 5fbd 234b 163d 8a6a e538
00000290: 4cc7 853d 74da 89bd 550a 4e3d 09de 3ebd
000002a0: 8486 973d e1f8 4fbd bd89 1e3d 2a78 28bd
000002b0: d4f9 333d 248c 4eba 3601 8fbc e13c 48bd
000002c0: c813 7f3d df48 9dbc 6762 9b3d 49d5 9d3d
000002d0: 44a9 233d d973 29bd d2a1 e73c 0f0b e9bc
000002e0: ade4 993c ec83 483d f1a3 963c fb3f c53c
000002f0: f47b b1bb e42a 92bc 45bd da3c b355 d03c
00000300: 760b 84bc 72c1 87bd 50f5 0abd 94e4 24bd
00000310: 946b 3cbc 30be dbbc 7ffa a0bb 52e9 813c
00000320: 7a39 cfbb 4785 343d 57cf 8c3d 99f2 fc3c
00000330: dfab a0bd aa09 71bd 13a3 bbbc b4ef 31bb
00000340: 5568 073d 3325 6bbd 7f99 513d 2b08 1fbd
00000350: f9ed 793d 4be7 80bc b7db 943c 53d5 243d
00000360: bd55 c03c a57f 513d e592 413d 9516 e63b
00000370: 8805 323c 3337 27bc 24f6 563d 780d d73c
00000380: 41fc e6bb 182b 31bb c1ea d4bc 0234 9b3d
00000390: 76c9 c8bc 8c8a fd3c d245 5f3d 520a ea3d
000003a0: 5c36 543c 7f55 063d 20e3 10bd b3df e1bc
000003b0: 43ce 01bd 195f 293d 8369 e0bc d66f 9fbc
000003c0: 02bb 853c 9724 153c a72f 4e3d f879 0bbd
000003d0: 10fa 6a3b 0b97 05bd e877 8b3d 98d6 6c3d
000003e0: 90f2 893c 6ee2 1cbd 79fa ec39 cd09 453d
000003f0: 5edc 363d 065b 60bc 627b 8e3d 3888 2f3d

cnn.cnn_layers.9.bias f4 [64]
-0.04176136 -0.08205744 -0.034576602 -0.07830002 -0.0072442293 -0.058540095 -0.10215592 -0.09810501
0.04277306 0.051384453 0.05833896 0.11046557 -0.034057733 0.039089568 -0.04672586 -0.094778895
-0.09145583 0.05697433 -0.06634997 0.1002778 0.01983412 0.07185258 0.037303835 0.07225521
-0.08205664 -0.0016932526 0.10095233 -0.013566018 0.034805987 0.08839174 0.058116212 -0.0024119292
-0.024752405 0.007299003 -0.07948168 0.011623157 0.0832413 -0.074157216 -0.044799734 -0.023605166
0.0014506036 -0.0151577145 -0.10952009 0.0016679291 -0.014262303 -0.060879394 0.054079905 0.079398185
0.083804704 0.0707677 0.014396782 -0.01595527 -0.08121007 -0.020557716 0.056341756 -0.040535275
0.07034586 0.108145595 -0.03129362 -0.096121885 0.012577763 0.08199256 0.04744683 -0.080509774
00000000: f60d 2bbd bb0d a8bd 32a0 0dbd c35b a0bd
00000010: 0061 edbb bdc7 6fbd 1f37 d1bd 48eb c8bd
00000020: ce32 2f3d 8178 523d d5f4 6e3d c63b e23d
00000030: 1f80 0bbd 621c 203d 9e63 3fbd 701b c2bd
00000040: 324d bbbd ea5d 693d 7ee2 87bd 725e cd3d
00000050: 2a7b a23c 7227 933d e8cb 183d 8afa 933d
00000060: 500d a8bd 21f0 ddba 18c0 ce3d 0144 5ebc
00000070: b990 0e3d bb06 b53d 440b 6e3d 7511 1ebb
00000080: 8ec5 cabc 7a2c ef3b 4bc7 a2bd 0e6f 3e3c
00000090: 6a7a aa3d bddf 97bd ed7f 37bd 9f5f c1bc
000000a0: 2e22 be3a 1058 78bc 124c e0bd 6a9e da3a
000000b0: 6fac 69bc ac5c 79bd e482 5d3d 849b a23d
000000c0: cda1 ab3d a8ee 903d 7be0 6b3c a0b4 82bc
000000d0: 7751 a6bd a868 a8bc 9dc6 663d 5108 26bd
000000e0: 7e11 903d 707b dd3d bd2d 00bd 8ddb c4bd
000000f0: f612 4e3c b7eb a73d 9b57 423d 4fe2 a4bd

cnn.cnn_layers.11.weight f4 [1, 64]
0.15066065 0.15112202 0.0424178 0.13943703 -0.15615939 0.054166928 0.037082165 0.12545481
-0.1204566 -0.09905332 -0.13691068 -0.11504918 0.061184607 -0.057871267 0.08576753 0.080120176
0.13390996 -0.09559518 0.11644639 -0.07886685 -0.06454124 -0.17174225 -0.071936265 -0.075320825
0.09674705 -0.132922 -0.13536431 0.08036321 -0.11572213 -0.10767196 -0.106402546 0.013934307
0.069537506 0.07715836 0.12533326 -0.07783159 -0.088958286 0.029738966 0.14767462 0.12244733
0.11588021 0.09493564 0.121105425 0.092410855 0.10672846 0.062846005 -0.18069491 -0.110504285
-0.095820636 -0.08126411 -0.13034013 0.008140727 0.059731677 0.05769425 -0.1479839 0.0552149
-0.112011 -0.07906051 0.04991033 0.14719534 -0.16234197 -0.12779735 -0.14857313 0.1428659
00000000: c946 1a3e bbbf 1a3e 49be 2d3d 95c8 0e3e
00000010: 3fe8 1fbe 24de 5d3d 78e3 173d 3a77 003e
00000020: f3b1 f6bd 78dc cabd 5032 0cbe e89e ebbd
00000030: b69c 7a3d 6c0a 6dbd e3a6 af3d 0c16 a43d
00000040: b11f 093e 68c7 c3bd 727b ee3d f184 a1bd
00000050: 332e 84bd 33dd 2fbe 5253 93bd ce41 9abd
00000060: 5123 c63d b41c 08be f19c 0abe 7795 a43d
00000070: b9ff ecbd 1e83 dcbd 94e9 d9bd b84c 643c
00000080: ae69 8e3d 3405 9e3d 5d57 003e 2b66 9fbd
00000090: c32f b6bd 229f f33c 0438 173e aac5 fa3d
000000a0: 9b52 ed3d 9e6d c23d 1f06 f83d e741 bd3d
000000b0: 7394 da3d 68b5 803d 1608 39be 1250 e2bd
000000c0: 9c3d c4bd cc6d a6bd e277 05be af60 053c
000000d0: 34a9 743d ce50 6c3d 1789 17be 0529 623d
000000e0: 0666 e5bd 7aea a1bd c66e 4c3d 60ba 163e
000000f0: f93c 26be 4fdd 02be 8e23 18be 704b 123e
