tutorial7/NodeLevelGNN.ckpt (torch_old, 93574 bytes, 4 tensors)

model.layers.0.weight f4 [1433, 16]
000000 38 cb df 3c 4e 89 fd 3c df 6f 25 bc 25 45 48 3d
       0.027318582 0.030949261 -0.010097473 0.048894066
000010 74 8c 5e bc 1b f1 dd 3c 79 c6 0e bd 72 a9 11 3d
       -0.013583291 0.027092507 -0.034857247 0.035561986
000020 52 e3 41 3d 7e a6 cb bc 2b 52 45 3d 65 2c cb 3c
       0.04733593 -0.024859663 0.048174065 0.024801442
000030 f9 57 51 3d fa b7 a8 3b 76 f7 07 3d 30 1a 52 bc
       0.051109288 0.005148885 0.03319498 -0.012823626
000040 1f 8a ce 3d e1 6a 83 3d af d3 3a bd b5 12 e1 3c
       0.10084938 0.0641687 -0.045612033 0.02747474
000050 18 64 b8 bc fb 65 27 3d dd b3 80 3d 7d db 4a 3d
       -0.022508666 0.04086874 0.06284306 0.049525727
000060 ce 08 a4 bc 50 1a 89 3c 05 49 13 bd 69 e1 c8 bd
       -0.02002373 0.01673618 -0.03595831 -0.098086186
000070 81 21 82 3d 20 9d 58 bc c2 93 83 3d fd c7 fd bd
       0.063540466 -0.013221055 0.06424667 -0.1239166
000080 d1 81 fd bc 64 13 8f bd 66 35 b2 bd 73 5b 00 3d
       -0.03094569 -0.0698612 -0.08701591 0.031337213
000090 bb 0f 1e 3b 0f 0c 6c 3d f4 61 fe ba 07 ef 5e bc
       0.0024118263 0.057628687 -0.0019407854 -0.013606793
0000a0 08 49 4b bd b7 0e 8c 3d 12 ae d4 3d cb d8 e9 3c
       -0.049630195 0.06838744 0.10384764 0.028545758
0000b0 24 8a 90 3d 78 2d 8f 3b 48 50 00 3d ce 06 f1 bc
       0.07057598 0.004369434 0.031326562 -0.02942219
0000c0 92 5d b2 3d ef 15 a4 bd 19 85 27 bd 79 4f ce bc
       0.08709253 -0.08011996 -0.040898416 -0.02518438
0000d0 c5 20 35 bd 93 04 a0 3d 22 be e8 3b b5 35 e2 3d
       -0.044220705 0.078133725 0.0071027437 0.110454
0000e0 6a 56 c7 bb 1b 01 bf bc 44 1e 18 3d 53 74 db 3c
       -0.0060832994 -0.023315957 0.03713824 0.026788866
0000f0 fc 69 a7 bc 33 25 93 bd 63 c2 0c bc 88 f1 95 bc
       -0.02043628 -0.071848296 -0.008591267 -0.018303648
000100 64 8b 8d be 73 2d 56 3f d0 c6 23 be 54 6c 3c bc
       -0.2764541 0.836631 -0.1599381 -0.011500437
000110 6f e8 04 bb 98 96 68 be 22 75 bc 3d 46 f5 8d be
       -0.0020280143 -0.22713697 0.09202029 -0.2772619
000120 42 cf e9 3e 3f 6e d9 bd fd a0 6f 3e c0 c4 4a be
       0.45665938 -0.10616731 0.23401256 -0.19801617
000130 1f 57 60 3e 82 24 38 3e df d1 9e 3e 34 01 aa 3e
       0.21908234 0.17982677 0.31019494 0.33204043
000140 47 dd ba 3c f0 ce 1f bd 75 e7 2e 3d 9c c4 bc bc
       0.022810591 -0.03901571 0.042701203 -0.02304297
000150 b1 c0 01 3d f2 08 46 bc 91 86 69 3d 34 a1 f7 bc
       0.031677905 -0.012087094 0.0570131 -0.030228235
000160 6a 74 9b bc a1 31 b1 3b f8 7f f4 ba 9c d7 23 bd
       -0.018976409 0.0054075276 -0.001865386 -0.040000543
000170 4b b9 72 3c d6 ba f9 3c fe 67 52 bd ec b9 f3 bc
       0.014814685 0.030484598 -0.051368706 -0.02975174
000180 87 60 8f b9 80 32 ea bd bd 7f a1 bd e0 bf 61 bd
       -0.00027347004 -0.11435413 -0.07885692 -0.055114627
000190 dc 83 0a bd e8 70 2f bd 49 2e d8 bc e1 8b 27 bd
       -0.033817157 -0.042832285 -0.026389258 -0.040904883
0001a0 f2 69 86 bd 51 8a 59 bd 47 72 98 3d 6d b7 ee bc
       -0.06563176 -0.053110424 0.07443672 -0.029140199
0001b0 4d 2b 06 be 7c d3 12 bd 91 a6 08 3d 3a 33 d6 3d
       -0.13102455 -0.03584622 0.033361975 0.104589894
0001c0 b5 f8 24 3d 39 41 49 bd d4 0f 3d bd 2f b2 73 bc
       0.040276248 -0.049134467 -0.046157673 -0.014874025
0001d0 d7 24 df 3b 00 0a ca bc 28 a4 3f 3b aa c8 b7 bc
       0.0068098116 -0.024662971 0.0029242132 -0.022434551
0001e0 5a bf 10 3c 19 ae 32 bb 6a 6e 63 bc 5d 04 8f bd
       0.008834684 -0.0027264415 -0.013881305 -0.06983254
0001f0 5c b9 a2 bc ab 3c bc bc 62 b0 59 bc 1a c4 96 bd
       -0.019863777 -0.022978147 -0.013286682 -0.07361622
000200 50 22 aa 3c 4f 3d 1f 3d 10 86 37 3c 69 f1 8b 3c
       0.020768315 0.038876828 0.011201397 0.017082887
000210 3c 99 25 bd ca d0 f9 3b 9e 6c 23 bb 65 d5 4f bd
       -0.04042934 0.0076237665 -0.0024936567 -0.05074062
000220 15 57 38 bd 55 92 57 bd 05 7f 74 3d 4c 48 69 bd
       -0.045004923 -0.052629787 0.059691448 -0.056953713
000230 d8 bc 1b 3d 5e 54 93 bc 4d ea 24 3d 68 93 e1 bc
       0.038021892 -0.017984565 0.04026251 -0.02753611
000240 69 5c 57 bc cd bd 9b 3a 12 ac d2 3c 5b be 4f 3d
       -0.013144591 0.0011882127 0.025716815 0.050718646
000250 48 8d 44 3d d7 80 13 bd 5e 86 fb 3c 9f 5a db bc
       0.0479863 -0.036011543 0.03070372 -0.02677661
000260 ee 46 85 bc 1d e1 b7 bc e3 a2 5c 3d 05 8d 54 bd
       -0.016269173 -0.02244621 0.05386628 -0.0518923
000270 84 0f 1b 3d 4a 1d ed 3c ab 32 78 3c ed 97 1e bd
       0.037856594 0.02894463 0.015148799 -0.038719106
000280 62 48 46 3d 2a 1d 32 3c 70 b7 09 3c f4 0d 41 bd
       0.048408873 0.010871211 0.008405551 -0.047132447
000290 9a 74 b4 3c 5c a0 4a bb eb d9 ae bc 21 4c 3b 3d
       0.022028256 -0.0030918336 -0.021344146 0.0457269
0002a0 a8 3c 55 3c d1 52 dc bc db ee e3 bc 33 b2 b0 bb
       0.01301495 -0.026894959 -0.027823856 -0.0053923368
0002b0 82 0d 00 3d ff 56 4f bc 51 ba ec bc da f6 a1 bc
       0.031262882 -0.012655019 -0.028897436 -0.019771028
0002c0 3b 60 6d bd 13 63 ae 3c 8b 44 57 3d a9 71 47 bd
       -0.0579531 0.021287477 0.052555602 -0.04869238
0002d0 37 92 46 3c c0 07 1b 3d f7 7a 52 3c 20 b0 e7 bc
       0.012119821 0.037849188 0.0128467 -0.028282225
0002e0 7c bc f7 3c 10 d2 38 3d a3 5f 75 3c 84 db 29 bb
       0.030241244 0.045122206 0.014976415 -0.0025918195
0002f0 0d 04 38 3b d1 76 35 3c 25 0c 61 bb c6 29 91 bc
       0.0028078586 0.011075691 -0.0034339514 -0.017720114
000300 0d 79 eb bd 78 7f 52 3e 24 b0 dc bd 64 dd 66 bc
       -0.11497698 0.20556438 -0.10775784 -0.01409087
000310 07 95 02 3c 6f 12 96 bd 3a 98 93 bc 6d 0c c1 bd
       0.007970101 -0.07327735 -0.018016923 -0.09426198
000320 54 f7 99 bb e9 fc f2 bc e7 cf 3e 3e 38 94 ca bb
       -0.0046986733 -0.029661613 0.18633996 -0.00618222
000330 25 c3 66 3d a0 17 06 3b 3f 34 22 3d bf 50 80 3d
       0.056338448 0.002046086 0.039600607 0.06265401
000340 cc 59 3d 3d 9a 8d c5 3b 3b 39 0a 3d f9 18 c2 3c
       0.046228215 0.006028843 0.033745985 0.023693549
000350 91 11 44 bd 5a 62 99 bb 05 f9 d7 3c b2 4f a3 3d
       -0.047868315 -0.004680914 0.026363859 0.07974185
000360 97 af fb 3c fa 59 3f bc eb b1 ac bb f0 3e 90 bd
       0.030723376 -0.011679167 -0.005270233 -0.070432544
000370 da fe 45 bd be 78 f1 3c d2 d5 ba bc f7 40 29 bd
       -0.04833875 0.02947652 -0.022807036 -0.04132172
000380 53 c2 95 bd 31 d2 be 3d 58 8a 04 bb 16 07 d9 3c
       -0.07312455 0.093174346 -0.002022406 0.026492637
000390 e3 2e 17 bd ad a2 76 bd 46 a1 cb bc 8f d2 25 3c
       -0.03690995 -0.060213733 -0.024857175 0.010121002
0003a0 8f 9f 38 3d e5 ce 5f 3d da cf 5e 3d 5d 09 20 bd
       0.045074042 0.05464067 0.05439744 -0.03907143
0003b0 a3 ab f4 3c 09 28 9c bc 77 e0 fd bc 12 91 44 bd
       0.029866999 -0.019062059 -0.030990822 -0.047989912
0003c0 a0 c7 20 bd 51 dc 6f 3d ff b1 a4 3c 54 1b 5a bc
       -0.039252877 0.05855972 0.020104406 -0.01331218
0003d0 1e 0e 7c bb d8 c1 ca bc cd 76 87 bd 98 87 51 bb
       -0.0038460563 -0.024750635 -0.06614456 -0.003197169
0003e0 6b 74 15 3d e0 a5 cf 3c 91 62 13 bd 68 1b 3a 3d
       0.036487978 0.02534765 -0.035982672 0.045436293
0003f0 af 14 24 3d eb af 33 bd 4d 1b 34 3d 91 25 3e bc
       0.040058788 -0.04386894 0.04397135 -0.011605636

model.layers.0.bias f4 [16]
000000 5b 92 bd 3e ef 26 97 3e 81 0c 29 3f c7 c9 80 3c
       0.37025723 0.2952189 0.66034704 0.015721215
000010 6c 37 06 3d a9 ad d3 3e 93 44 e7 3e a6 9b f9 3e
       0.0327677 0.4134343 0.45169505 0.48751563
000020 62 bf e1 3e cf f7 91 3e a8 95 a3 3e b1 af f9 3e
       0.44091326 0.28509375 0.31950116 0.48766854
000030 77 8c a5 3e d3 ca 83 3e 3d 40 c9 3e d6 04 0e 3f
       0.3233373 0.2574068 0.39306822 0.5547613

model.layers.3.weight f4 [16, 7]
000000 5a 0d 33 bf 75 4e 06 bd e9 15 01 bf a5 b9 bb 3f
       -0.6994225 -0.032789666 -0.5042406 1.4666029
000010 76 f9 a3 bf ad 21 28 bf 5f c4 83 3f 12 b9 63 bf
       -1.2810504 -0.65676385 1.0294303 -0.8895427
000020 e0 36 34 bf 33 da 53 bf c2 15 e2 3d ee 15 19 3f
       -0.7039623 -0.8275482 0.11039306 0.5979909
000030 51 aa ed 3f 76 b8 c2 bd 95 2f 83 bf cc 09 07 bf
       1.8567601 -0.095078394 -1.0248896 -0.52749324
000040 48 6e 25 3f be cc d9 3e 9a 68 83 3f 6b cc 8f bf
       0.646214 0.42539018 1.0266297 -1.1234258
000050 e5 29 8b 3f 16 30 b9 be 5a 42 9d 3e a6 30 73 be
       1.087216 -0.361695 0.30714685 -0.23749027
000060 47 00 a8 be 05 5d b0 3e a6 26 9b 3e 5b d0 63 3d
       -0.32812712 0.34445968 0.30302924 0.055618625
000070 9c 71 73 3c 80 6e 7e be 62 f0 8b be 41 7e 01 bd
       0.01485863 -0.2484684 -0.27331835 -0.031614546
000080 86 45 50 bd 36 ea c8 3e 54 09 25 3e bc 54 ec 3d
       -0.050847553 0.3924119 0.1611684 0.11539599
000090 60 5e 89 3f d8 43 8b bf 60 08 c7 3e 82 3f 02 3f
       1.0731926 -1.0880079 0.38873577 0.50878155
0000a0 3c 4c 3d bf b4 8f 67 bd 4b 8a 95 bf c6 29 6c 3f
       -0.7394445 -0.05653353 -1.1682829 0.9225124
0000b0 f8 d3 8d 3f cd 9b 31 3f 29 63 f5 be 6a 74 77 3e
       1.1080313 0.6937836 -0.47927216 0.24165502
0000c0 3a 07 05 3e aa 9e 58 3f 8b 81 8f 3e b6 3c 96 bf
       0.12991038 0.846171 0.2802852 -1.1737278
0000d0 93 b2 d2 3e 55 a7 0f bf df fd 28 bf fb 30 34 3f
       0.41151866 -0.56114703 -0.66012377 0.7038724
0000e0 17 26 c1 be 80 d1 67 be 24 54 ce be 9f c5 97 3f
       -0.37724373 -0.22638512 -0.4029857 1.1857184
0000f0 d3 af 56 3f d4 92 20 3f e7 09 88 bf d4 ce 1a bf
       0.83862036 0.6272404 -1.0628022 -0.60471845
000100 9b 1f 90 3f 00 96 18 3e a1 a3 83 bf 57 42 9d 3d
       1.1259645 0.1490097 -1.028431 0.07678669
000110 c6 28 f5 be 65 2f 1c be 69 3b 8c 3f df 7f dd 3c
       -0.4788267 -0.15252455 1.095563 0.027038513
000120 5f 71 87 3f c4 07 55 bf 48 5e 71 bf 58 f8 5c 3f
       1.0581473 -0.83214974 -0.94284487 0.8631644
000130 eb ac 4f bf 7a bf 89 3f 33 65 6d bf f8 1e 5b bf
       -0.81123227 1.0761559 -0.9273254 -0.8559413
000140 38 8e 8c bf 60 8c 77 3f 02 39 51 bf 34 5a c0 3f
       -1.0980902 0.9669857 -0.8172761 1.5027528
000150 6e fb 02 bf cc 17 5b 3f 79 87 4f bf 32 d8 80 bf
       -0.511649 0.85583186 -0.8106609 -1.0065978
000160 3a 71 20 3f 32 16 ec 3e 99 c0 fe 3e 7c 10 15 bf
       0.6267277 0.46110684 0.49756315 -0.5822828
000170 15 90 f6 3e 8f 3a 27 3f 68 b7 11 bf bd 18 e4 be
       0.481568 0.6532373 -0.5692048 -0.44550124
000180 23 c8 d6 3e 52 b2 e2 3d cc 21 9b 3e 6d 80 d3 3d
       0.41949567 0.11069168 0.30299222 0.1032723
000190 e2 b6 0d bf 21 ad b5 3e 86 5f 47 3f bd e5 e9 3e
       -0.5535718 0.3548365 0.7788013 0.4568309
0001a0 86 22 84 bf c8 57 39 3f f6 9c b8 bf c5 db 85 3f
       -1.0323036 0.7239957 -1.4422901 1.0457693
0001b0 4e ef 64 3e 03 43 95 3e 6c 97 c6 3e a4 7e 6b bf
       0.22356912 0.29152688 0.387874 -0.91990113

model.layers.3.bias f4 [7]
000000 37 cf bc 3e 33 98 9f 3d bf 0b de 3e 8a 4b d4 3c
       0.36876842 0.077927016 0.43368337 0.025914926
000010 07 07 d4 be 6a a3 85 bd b7 95 da be
       -0.4141161 -0.065253094 -0.42692348
