tutorial7/NodeLevelGNN.ckpt (torch, 94239 bytes, 2 tensors)

model.layers.0.bias f4 [16]
0	0x3ebd925b	0.37025723
1	0x3e9726ef	0.2952189
2	0x3f290c81	0.66034704
3	0x3c80c9c7	0.015721215
4	0x3d06376c	0.0327677
5	0x3ed3ada9	0.4134343
6	0x3ee74493	0.45169505
7	0x3ef99ba6	0.48751563
8	0x3ee1bf62	0.44091326
9	0x3e91f7cf	0.28509375
10	0x3ea395a8	0.31950116
11	0x3ef9afb1	0.48766854
12	0x3ea58c77	0.3233373
13	0x3e83cad3	0.2574068
14	0x3ec9403d	0.39306822
15	0x3f0e04d6	0.5547613

model.layers.3.bias f4 [7]
0	0x3ebccf37	0.36876842
1	0x3d9f9833	0.077927016
2	0x3ede0bbf	0.43368337
3	0x3cd44b8a	0.025914926
4	0xbed40707	-0.4141161
5	0xbd85a36a	-0.065253094
6	0xbeda95b7	-0.42692348
