tutorial7/NodeLevelMLP.ckpt (torch_old, 93548 bytes, 4 tensors)

model.layers.0.weight f4 [16, 1433]
0.00892972 -0.01715971 0.010528674 0.019692756 0.15259337 0.009790974 -0.008781903 0.014684112
0.022041647 -0.018343264 0.02173293 0.004679634 0.021091852 -0.0042873556 0.012056385 -0.025992338
0.019274835 0.003567607 -0.011672627 -0.055384733 -0.011520022 -0.0029322298 -0.010155375 0.025061037
-0.019737003 -0.016009858 0.06372611 -0.020268895 0.021788327 -0.024695417 0.021380473 -0.021239663
0.01930338 0.0041610594 -0.008118743 0.008017332 0.0038968108 0.020201897 0.054377545 -0.068258345
0.04731384 -0.018044278 0.010522906 0.022323662 -0.010867629 -0.0015002565 0.014433629 0.0070373323
0.03371253 -0.015239751 -0.025261203 -0.10145915 0.032210983 0.020516334 0.05513556 0.010356779
0.03609006 0.0019018662 -0.0037801038 0.011266009 0.0015743125 0.064195104 0.011011772 0.006244764
0.03530015 -0.016596746 0.020737683 0.019062422 -0.014912024 -0.0149129275 0.0176942 0.008332439
0.024855228 -0.020634782 -0.024800358 -0.019561823 -0.018619627 -0.026945183 0.06749494 0.020775998
0.0025832157 -0.006036673 0.012863515 -0.012863338 0.015175212 -0.00513774 0.009596703 -0.019426905
-0.077233545 -0.0204147 0.0052859248 -0.007931275 -0.002446006 0.03581469 -0.0061132843 -0.013348567
0.022894738 -0.039593194 -0.021257093 0.049953684 -0.0022109686 0.0062459633 -0.018744513 -0.038874436
-0.013919907 0.0021896372 -0.023407962 -0.0114316605 -0.02051543 -0.014982854 0.024993705 0.004722532
0.007705067 -0.023320356 -0.016421635 -0.008322556 -0.00017621642 -0.022001097 0.03916157 -0.020396832
0.006151922 -0.0035719853 0.0002164491 0.020271076 -0.03215202 -0.011708017 0.015740147 -0.019734774
-0.02131304 -0.020029249 0.059038702 -0.02355842 0.03448443 -0.00920353 -0.0068795797 -0.09724627
0.0073915417 -0.024857482 0.0071537616 -0.006170821 0.073896565 -0.020519441 0.018563312 -0.017823258
-0.004317435 0.0052224714 0.016539413 0.020185573 0.022777159 -0.057257753 0.009713136 -0.0009384347
-0.0027400018 -0.027987598 0.051338203 -0.020080214 0.0133631425 -0.0063621174 0.027496763 0.0058536893
0.028347252 0.005494525 -0.0074100015 -0.022034436 0.010496175 -0.003751038 -0.011454706 0.047038045
-0.021022901 -0.013833839 -0.012655237 -0.0011940595 -0.025060898 -0.027203597 -0.014394492 -0.008562267
-0.016342647 0.008917053 0.019353703 -0.028940067 0.005807077 2.1165708e-06 0.0045338655 -0.009308566
0.013050369 0.0131396605 0.008839436 0.01438844 -0.006749085 0.0026748956 0.03319603 0.007443526
0.029064449 0.021487987 -0.008117737 -0.005598201 0.004330484 -0.0014929142 0.0060111205 0.0070068166
-0.023909979 -0.009227229 0.021056168 0.010643572 -0.0012436126 -0.042955488 -0.01529726 -0.017651793
0.019768424 0.00844378 0.015942764 0.0044258577 -0.056270767 -0.000903643 -0.0039459653 0.024187109
0.0036169412 -0.00085487147 0.010344322 -0.009523365 -0.016183648 0.018249722 -0.008377298 -0.0050123683
-0.013494791 0.05864673 0.0034992837 0.009112478 -0.015998537 -0.024676941 -0.020307308 0.018645104
-0.014101398 0.016790645 0.1009249 0.006328185 -0.00024485137 -0.01545351 -0.02873744 -0.023386978
-0.0057101194 -0.012275914 0.0103773875 -0.014389638 -0.004556226 -0.017598325 -0.016337669 0.0807177
-0.007430944 0.004001967 0.034793414 -0.018341735 -0.004411588 -0.0121203745 -0.007649607 -0.023803208
00000000: f64d 123c 8592 8cbc 7680 2c3c b452 a13c
00000010: 7041 1c3e 526a 203c f9e1 0fbc a195 703c
00000020: af90 b43c 9d44 96bc 4209 b23c 9d57 993b
00000030: d2c8 ac3c f27c 8cbb 2588 453c e2ed d4bc
00000040: 42e6 9d3c 83ce 693b 8c3e 3fbc 1adb 62bd
00000050: 79be 3cbc a72a 40bb bb62 26bc ce4c cd3c
00000060: 7faf a1bc 1b27 83bc d682 823d f40a a6bc
00000070: 6f7d b23c 0b4e cabc 1a26 af3c cdfe adbc
00000080: 1f22 9e3c 7f59 883b 7a04 05bc 215b 033c
00000090: a361 7f3b 737e a53c fdba 5e3d 08cb 8bbd
000000a0: 28cc 413d 98d1 93bc 4468 2c3c 1de0 b63c
000000b0: 240e 32bc 41a4 c4ba 077b 6c3c 6c99 e63b
000000c0: 2616 0a3d 26b0 79bc 95f0 cebc d1c9 cfbd
000000d0: aaef 033d df11 a83c d3d5 613d 7baf 293c
000000e0: 2cd3 133d 0a48 f93a 9ebb 77bb 1195 383c
000000f0: 2959 ce3a b978 833d b86a 343c e1a0 cc3b
00000100: e496 103d e6f5 87bc 13e2 a93c cc28 9c3c
00000110: 9051 74bc 5a55 74bc 6df3 903c c884 083c
00000120: 319d cb3c 460a a9bc 1f2a cbbc 1e40 a0bc
00000130: 3088 98bc 25bc dcbc c93a 8a3d 6d32 aa3c
00000140: 2b4b 293b 49cf c5bb 7ec1 523c c0c0 52bc
00000150: 74a1 783c 7d5a a8bb 7d3b 1d3c 2c25 9fbc
00000160: 9f2c 9ebd bb3c a7bc 8d35 ad3b 2ef2 01bc
00000170: 2c4d 20bb 6db2 123d f251 c8bb f3b3 5abc
00000180: bf8d bb3c 792c 22bd 5b23 aebc 3c9c 4c3d
00000190: e6e5 10bb f0aa cc3b 188e 99bc cd3a 1fbd
000001a0: 5210 64bc 0480 0f3b 0ec2 bfbc dc4b 3bbc
000001b0: fa0f a8bc a57a 75bc 99bf cc3c 78bf 9a3b
000001c0: c97a fc3b 550a bfbc aa86 86bc 545b 08bc
000001d0: bcc6 38b9 a53b b4bc e267 203d 4217 a7bc
000001e0: 1096 c93b f817 6abb 9df6 6239 870f a63c
000001f0: d6b1 03bd fcd2 3fbc 7bf1 803c d2aa a1bc
00000200: af98 aebc 6114 a4bc 91d2 713d 96fd c0bc
00000210: 8c3f 0d3d 67ca 16bc 196e e1bb 0d29 c7bd
00000220: bf34 f23b eba1 cbbc 1a6a ea3b 9934 cabb
00000230: 1557 973d 6318 a8bc 1612 983c 1502 92bc
00000240: 4579 8dbb 4421 ab3b aa7d 873c 375c a53c
00000250: 2a97 ba3c 1b87 6abd d823 1f3c 4901 76ba
00000260: 9a91 33bb 3f46 e5bc 0248 523d 437f a4bc
00000270: 15f1 5a3c 4f79 d0bb e440 e13c 4ed0 bf3b
00000280: 7f38 e83c 6b0b b43b 99cf f2bb 9081 b4bc
00000290: 26f8 2b3c fad3 75bb 85ac 3bbc f7aa 403d
000002a0: 3838 acbc 54a7 62bc e957 4fbc fd81 9cba
000002b0: 834c cdbc 14da debc e0d6 6bbc c048 0cbc
000002c0: 04e1 85bc d518 123c a88b 9e3c b813 edbc
000002d0: 4b49 be3b 690a 0e36 d290 943b f582 18bc
000002e0: 37d1 553c bb47 573c 48d3 103c 7ebd 6b3c
000002f0: 6e27 ddbb 4d4d 2f3b 8ff8 073d d2e8 f33b
00000300: 9118 ee3c 9307 b03c 4200 05bc 1d71 b7bb
00000310: bce6 8d3b e3ad c3ba eff8 c43b 7099 e53b
00000320: dcde c3bc ce2d 17bc fc7d ac3c 6062 2e3c
00000330: b700 a3ba 18f2 2fbd 5ca1 7abc 7e9a 90bc
00000340: 64f1 a13c c857 0a3c 669a 823c c906 913b
00000350: 2d7c 66bd 75e2 6cba 284d 81bb 0b24 c63c
00000360: 340a 6d3b 7419 60ba 3b7b 293c e307 1cbc
00000370: 9293 84bc 7180 953c ef40 09bc cb3e a4bb
00000380: 4219 5dbc 8e37 703d 3d54 653b 814c 153c
00000390: 5d0f 83bc 4c27 cabc 835b a6bc 9ebd 983c
000003a0: 8d09 67bc 898c 893c b7b1 ce3d aa5c cf3b
000003b0: 655f 80b9 b830 7dbc c86a ebbc 0c96 bfbc
000003c0: f41b bbbb ea20 49bc eb05 2a3c 84c2 6bbc
000003d0: 654c 95bb 5d2a 90bc 93d6 85bc 524f a53d
000003e0: 477f f3bb ef22 833b 8a83 0e3d 6841 96bc
000003f0: 158f 90bb 8994 46bc 8ea9 fabb f2fe c2bc

model.layers.0.bias f4 [16]
0.19414623 0.16106232 0.22509395 0.41879654 0.17944 0.41461536 0.3768223 0.25291198
0.43008885 0.2416435 0.43712658 0.36752078 0.31761786 0.33281967 0.16897571 0.15530887
00000000: 45ce 463e 85ed 243e 077f 663e 806c d63e
00000010: 1fbf 373e 7748 d43e daee c03e ae7d 813e
00000020: 9b34 dc3e 6571 773e 0ecf df3e af2b bc3e
00000030: cf9e a23e 5767 aa3e f807 2d3e 4a09 1f3e

model.layers.3.weight f4 [7, 16]
0.07046905 0.06523241 0.3933641 -0.3894906 0.73311687 -0.57562953 0.38600853 -0.40347517
-0.49011517 0.6329442 0.6949689 -0.1078327 -0.072783135 -0.4634615 -0.3575577 -0.013851986
-0.29172975 0.8527211 0.03873222 -0.4353997 0.5086386 -0.57094103 0.21720356 0.20942853
-0.3076582 0.041380305 -0.7172128 0.3292402 0.60344803 0.35916242 0.24881187 0.3612069
0.46033973 -0.26408392 0.006913374 -0.61934686 0.11430067 0.13343062 -0.8489167 0.53842175
-0.09915792 -0.16884175 0.008338664 0.6572201 0.41401285 0.8214973 -0.45736456 -0.36208174
0.012803716 -0.25202462 -0.5896165 0.22656357 -0.4053485 -0.21730733 0.5638259 -0.19277896
1.0328557 -0.3465765 -0.087873735 0.5932343 -0.51864576 -0.07026064 -0.25669712 -0.25442734
-0.40709665 0.42945918 -0.40740666 0.44338936 -0.45713577 0.43125036 -0.8358601 -0.5052047
0.7291525 0.27496916 0.5317328 -0.6550436 0.23280732 0.38247153 -0.3520985 -0.09142306
0.5012588 -0.17049123 0.4893915 0.10135725 -0.12611999 0.17605312 0.1993571 0.59831864
-0.45559067 0.47517264 -0.78502923 0.29276067 -0.074848145 -0.28792173 0.5418838 -0.277514
-0.032183643 -0.26472667 0.06457181 0.78664196 -0.27680498 0.62092 0.5372534 -0.2117277
-0.6564858 -0.60286295 0.33681837 -0.6586139 -0.35634306 -0.109341614 0.24239558 0.2965299
00000000: 1452 903d 9298 853d 0567 c93e 506b c7be
00000010: 8cad 3b3f 755c 13bf e9a2 c53e 4c94 cebe
00000020: 60f0 fabe a208 223f 7be9 313f 64d7 dcbd
00000030: 530f 95bd d34a edbe ce11 b7be 71f3 62bc
00000040: 9a5d 95be ee4b 5a3f ada5 1e3d b6ec debe
00000050: 2436 023f 3129 12bf 9c6a 5e3e 6f74 563e
00000060: 6085 9dbe 657e 293d 429b 37bf 2c92 a83e
00000070: 927b 1a3f 23e4 b73e 8ac8 7e3e 1cf0 b83e
00000080: a6b1 eb3e 0236 87be 9689 e23b 848d 1ebf
00000090: 7816 ea3d 09a2 083e 9b52 59bf 02d6 093f
000000a0: 4f13 cbbd dae4 2cbe e49e 083c 943f 283f
000000b0: 7ef9 d33e a64d 523f b02b eabe c762 b9be
000000c0: adc6 513c 5f09 81be 1bf1 16bf 4800 683e
000000d0: d789 cfbe d085 5ebe e556 103f d967 45be
000000e0: 9e34 843f 7a72 b1be 25f7 b3bd 34de 173f
000000f0: f8c5 04bf cfe4 8fbd ce6d 83be 4d44 82be
00000100: f96e d0be 13e2 db3e 9b97 d0be ee03 e33e
00000110: b30d eabe d9cc dc3e edfa 55bf 1855 01bf
00000120: bda9 3a3f c2c8 8c3e a41f 083f f0b0 27bf
00000130: 0b65 6e3e 4fd3 c33e 4146 b4be 033c bbbd
00000140: 7f52 003f 4195 2ebe 8691 fa3e 6494 cf3d
00000150: 9925 01be 4547 343e 4524 4c3e 692b 193f
00000160: 2e43 e9be d449 f33e adf7 48bf bae4 953e
00000170: fc49 99bd 7a6a 93be e6b8 0a3f 5116 8ebe
00000180: ffd2 03bd 418a 87be 3a3e 843d 5e61 493f
00000190: 62b9 8dbe 9df4 1e3f 7089 093f 25cf 58be
000001a0: 740f 28bf 3a55 1abf 7573 ac3e ec9a 28bf
000001b0: 9972 b6be 7fee dfbd 8c36 783e c4d2 973e

model.layers.3.bias f4 [7]
-0.06873743 -0.26392162 0.16221453 0.03249144 0.042993434 -0.09239898 0.087528355
00000000: 36c6 8cbd bc20 87be 911b 263e bf15 053d
00000010: e219 303d ad3b bdbd 1142 b33d
