tutorial17/LogisticRegression_100.ckpt (torch, 21799 bytes, 2 tensors)

model.weight f4 [10, 512]
0	0x3c89ef9a	0.016837884
1	0xbd2e55ec	-0.04256241
2	0x3c73eaf4	0.01488756
3	0x3e021514	0.12703353
4	0xbdc4fcc5	-0.096185245
5	0xbd99b5fe	-0.075054154
6	0x3d754b4c	0.05988626
7	0x3c704367	0.0146645075
8	0x3d91a670	0.071118236
9	0xbd2dbc45	-0.042415876
10	0x3d8c42e6	0.06848697
11	0x3bb6b662	0.005575941
12	0xbd7ff082	-0.062485225
13	0xbd8a27b6	-0.067458555
14	0xbd95e5c0	-0.07319212
15	0x3c160236	0.009155801
16	0xbdf3e073	-0.11908045
17	0x3cd70897	0.026249213
18	0xbdc5716a	-0.09640773
19	0xbd89a1e4	-0.06720331
20	0xbdea01cc	-0.11426124
21	0xbd0cf2d4	-0.034411266
22	0xbd9b8c83	-0.0759516
23	0x3dab91aa	0.083773926
24	0xbd0b875d	-0.03406464
25	0x3cb6dbff	0.0223217
26	0xbd182d83	-0.03715278
27	0xbe303d8b	-0.17210977
28	0xbd1b9604	-0.037984863
29	0xbdb65b4b	-0.089041315
30	0x3ceb7742	0.02874339
31	0xbcdcb525	-0.026941845
32	0xbc38ae0c	-0.011271965
33	0xbbfb3ea7	-0.007667381
34	0x3cec5ecf	0.028853802
35	0x3e07d222	0.13263753
36	0x3c8b6548	0.017016068
37	0x3e258f19	0.16167869
38	0x3c8a7a69	0.016904073
39	0xbd43ab09	-0.047770534
40	0xbd01a247	-0.0316489
41	0xbd19333a	-0.03740237
42	0xbda8d2f0	-0.08243358
43	0x3d6d373a	0.057913996
44	0xbdf99a5e	-0.12187646
45	0xbd0a5a58	-0.033777565
46	0x3d19bf0b	0.03753571
47	0xbde80304	-0.113287
48	0x3d283f73	0.041076135
49	0xbce7c7f2	-0.028293584
50	0x3d596020	0.053070188
51	0xbcd18700	-0.025577068
52	0xbda7f893	-0.08201709
53	0x3cc2b1d3	0.023766434
54	0xbc942ec4	-0.018088706
55	0x3c9c67b4	0.019092418
56	0x3d4f07cd	0.05054455
57	0xbdd49b86	-0.10381226
58	0x3d32173b	0.043479186
59	0xbc5a2d22	-0.013316425
60	0xbd91a0cc	-0.07110748
61	0x3d9fe093	0.07806506
62	0xbd2841af	-0.041078266
63	0xbc64f8c2	-0.013975324
64	0xbd874383	-0.06604674
65	0x3c87741f	0.016534863
66	0x3d7e5cc8	0.0621002
67	0xbd963401	-0.07334138
68	0xbc2b3f4f	-0.010452106
69	0xbd3da55b	-0.046300273
70	0x3d6f133a	0.058367945
71	0xbd25bb0f	-0.040461596
72	0x3d9e1469	0.07718737
73	0x3cea5d90	0.028609067
74	0xbd458de0	-0.048231006
75	0xbe10a965	-0.14127119
76	0xbcfaa2c9	-0.0305952
77	0x3d9798b5	0.074021734
78	0x3d07aa45	0.033121366
79	0x3dec8bf7	0.11550134
80	0xbdc56db8	-0.09640068
81	0xbdd15d0c	-0.102228254
82	0x3dc5f2f0	0.09665477
83	0x3d192ed0	0.03739816
84	0xbdd0308f	-0.10165512
85	0x3d4f1671	0.05055851
86	0x3d99b4a0	0.075051546
87	0xbdff3a91	-0.124623425
88	0xbd14e5b1	-0.036351863
89	0xbc0e97c4	-0.008703176
90	0xbcc627aa	-0.024188835
91	0x3d827f47	0.063719325
92	0x3df6781f	0.1203463
93	0x3da2d1b6	0.079501554
94	0xbd9647a9	-0.07337887
95	0xbe22e9fb	-0.15909569
96	0x3b91258e	0.0044295257
97	0x3d77e9f3	0.060525846
98	0x3cfce361	0.030870141
99	0xbcdb5029	-0.026771622
100	0xbe25282f	-0.1612861
101	0xbc5c11a9	-0.013431945
102	0xbc14a08a	-0.009071479
103	0xbd6d119a	-0.057878114
104	0xbd74e211	-0.059785906
105	0xbe27a14b	-0.16370122
106	0xbdd2abc5	-0.10286669
107	0x3d001a56	0.031275116
108	0x3d301388	0.042987376
109	0xba9f2582	-0.0012141916
110	0x3cfb018f	0.030640392
111	0x3d001be7	0.03127661
112	0xbdc6c58a	-0.09705646
113	0xbd9cd803	-0.076583885
114	0xbcc236a4	-0.023707695
115	0xbe01ffe6	-0.12695274
116	0xbd8d322b	-0.068943344
117	0x3d23967a	0.039938428
118	0xbc7ce1de	-0.01543471
119	0xbd4645aa	-0.04840628
120	0x3d540c68	0.051769644
121	0x3dde7789	0.10862643
122	0x3d2f51c3	0.042802583
123	0xbcb5ffc6	-0.022216689
124	0xbe1e05c9	-0.15431894
125	0x3c95f823	0.018306797
126	0x3d7c6031	0.061615173
127	0x3d1383de	0.03601443
128	0x3dbce5a2	0.092234865
129	0xbcbd453b	-0.0231043
130	0xbcd567c1	-0.02605045
131	0x3ce94342	0.028474454
132	0xbc5cb2b3	-0.01347034
133	0x3dfd1cd8	0.12359017
134	0xbb948141	-0.00453201
135	0xbd5ff7d9	-0.054679725
136	0x3b0ff166	0.0021963953
137	0xbdfcb667	-0.12339478
138	0x3d08660c	0.033300444
139	0x3dd9d11d	0.10635588
140	0xbda6a340	-0.08136606
141	0xbdba9e71	-0.091122515
142	0xbd7aed7c	-0.06126164
143	0xbde9c9ad	-0.1141542
144	0x3d0d73f0	0.034534395
145	0xbd492e91	-0.049116675
146	0x3cb7c0e8	0.022430852
147	0xbd719c45	-0.05898692
148	0x3d3ee6f4	0.046606973
149	0xbe48b8d8	-0.19601762
150	0xbd904cc8	-0.07045895
151	0xbdf8b1b2	-0.12143268
152	0xbd2d30f0	-0.042283
153	0xbb190de4	-0.0023354227
154	0x3db04ebf	0.086087696
155	0xbe025ea5	-0.12731417
156	0x3c982698	0.01857309
157	0xbdbf4c6c	-0.09340748
158	0xbd8aad6d	-0.067713596
159	0xbb949138	-0.004533913
160	0x3da63a7d	0.081166245
161	0x3d26c3b2	0.040713973
162	0x3ddd3568	0.10801202
163	0xbb82e51f	-0.0039945985
164	0x3dccae26	0.09994154
165	0xbe07b0f1	-0.13251092
166	0x3e062a5d	0.13102098
167	0x3da99fa8	0.08282405
168	0x3e07cbb6	0.13261303
169	0xbe0a1169	-0.13483204
170	0x3cb96ea4	0.022635765
171	0xbd4eb4e4	-0.05046548
172	0x3e0e992d	0.1392562
173	0xbe0d1fd6	-0.13781676
174	0x3c94dde0	0.018172204
175	0xbda6b69d	-0.081402995
176	0xbc89b9e6	-0.016812276
177	0xbe01d215	-0.12677796
178	0x3c857d70	0.016295165
179	0xbc8cbb73	-0.017179227
180	0x3d70fc2a	0.058834232
181	0xbdba6301	-0.09100915
182	0x3c1a0f39	0.009403043
183	0x3d4a908c	0.049454257
184	0xbc5dd88a	-0.0135403965
185	0x3d9ecb3a	0.07753606
186	0xbb52dece	-0.003217626
187	0x3c3b7ac3	0.011442843
188	0xbc7a7fd7	-0.015289268
189	0x3c39b3d9	0.011334383
190	0xbd703ff1	-0.05865473
191	0xbc881138	-0.016609773
192	0x3ce49769	0.02790423
193	0xbdb9d773	-0.09074297
194	0xbdb54927	-0.08851843
195	0xbbfb3f0d	-0.0076674283
196	0xbcf0eb10	-0.029408962
197	0x3c2d741b	0.010586764
198	0xbcfb6330	-0.030686945
199	0x3c8f8fbb	0.01752459
200	0x3d050dfa	0.032484032
201	0xbd70137c	-0.05861233
202	0x3d960fa6	0.073272035
203	0xbdfdae7c	-0.12386796
204	0x3d787c2f	0.060665306
205	0xbd19850a	-0.03748039
206	0xbda4565c	-0.08024284
207	0xbdc63000	-0.09677124
208	0xbe01d931	-0.12680508
209	0xbd4dbf0a	-0.050231017
210	0x3d808dba	0.06277032
211	0x3da4d219	0.080478854
212	0xbd24b7cd	-0.04021435
213	0xbdcca3dd	-0.09992192
214	0xbde969e1	-0.11397148
215	0xbd56c698	-0.052435488
216	0x3d235206	0.039873146
217	0xbd54beec	-0.05193989
218	0xbcf0f3a4	-0.029413052
219	0xbd806d7a	-0.06270881
220	0x3d229368	0.03969136
221	0x3d28ca40	0.041208506
222	0x3d138cff	0.036023136
223	0x3d1c1216	0.038103186
224	0x3ce7d67d	0.028300518
225	0x3c8b6863	0.017017549
226	0x3d11437d	0.035464752
227	0xbdb9e287	-0.0907641
228	0x3c9c28d6	0.01906244
229	0xbd928f41	-0.0715623
230	0xbc77db41	-0.015127958
231	0xbd467972	-0.048455663
232	0xbd892c17	-0.066978626
233	0xbcd16323	-0.025559967
234	0x3d8cf5f4	0.06882849
235	0xbd8485b6	-0.06470816
236	0xbc5fafc2	-0.013652744
237	0xbdce1ccc	-0.10064086
238	0x3d2f3979	0.04277942
239	0x3df05594	0.11735073
240	0x3d9c5bca	0.07634695
241	0xbd75fbc6	-0.060054563
242	0xbcf7c8ae	-0.030247059
243	0xbd09e7fb	-0.0336685
244	0x3c913422	0.017725054
245	0xbcaeb4df	-0.02132648
246	0xbc5f9988	-0.013647445
247	0x3cb7e9e9	0.022450404
248	0xbd9937d5	-0.07481352
249	0xbe5c692c	-0.21524495
250	0xbe08f77c	-0.13375658
251	0xbe612a6a	-0.21988836
252	0xbccf0b81	-0.02527404
253	0xba2ce0e1	-0.0006594789
254	0x3bc3226d	0.0059550316
255	0xbdb523ea	-0.08844741

model.bias f4 [10]
0	0x3b9448f7	0.0045252996
1	0xbbe4a144	-0.006977232
2	0xbd81519f	-0.06314396
3	0x3c6c46cd	0.014421177
4	0x3d3b0fa0	0.045669198
5	0xbd4ceb1e	-0.050028913
6	0xbc8e75f3	-0.017390227
7	0x3c85f915	0.016354123
8	0xbcb5afee	-0.022178616
9	0x3c21acd6	0.009867867
