tutorial17/LogisticRegression_50.ckpt (torch, 21799 bytes, 2 tensors)

model.weight f4 [10, 512]
0.027413657 -0.046803262 -0.035638176 0.08340676 -0.08150611 -0.052793667 0.032994624 0.03285345
0.07444538 -0.041747432 0.055534363 -0.006371809 -0.032769386 -0.06536645 -0.065801166 0.006303618
-0.05991318 0.0050722524 -0.019951599 -0.030517494 -0.080100656 -0.04194589 -0.04313354 0.049087495
-0.03098707 0.0070293513 -0.055306535 -0.1168454 -0.01742582 -0.103565715 0.027176315 -0.058082156
0.044141352 0.013286982 0.012662279 0.10014031 0.0104585355 0.09498768 0.025083464 -0.06998989
-0.03253485 -0.018736713 -0.021569181 0.051580615 -0.06277581 -0.029156202 0.042928934 -0.07128003
0.030541645 -0.036281534 0.019910514 -0.046232615 -0.029353894 0.06020564 -0.0058625424 0.04426307
0.056276597 -0.027414506 0.028725564 -0.03506546 -0.06552172 0.047819164 -0.03592355 0.02136131
-0.02604239 0.029936746 0.071161754 -0.021597007 -0.02269925 -0.056073207 0.049222432 -0.028305696
0.05907499 0.02622223 -0.06818262 -0.11030805 -0.053436607 0.00049133983 0.034443755 0.1058057
-0.017733583 -0.09606443 0.049235083 0.0059690005 -0.050175145 0.016542023 0.03356855 -0.055900272
-0.04023961 -0.004404468 -0.007700609 0.042128064 0.06127277 0.062775694 -0.048321012 -0.10066329
0.03250123 -0.00505139 0.023769185 -0.04734601 -0.11982763 -0.019793862 0.031202387 -0.050540745
-0.06033665 -0.111067176 -0.097827375 0.031056808 0.037679393 0.01467797 0.04969887 0.014251156
-0.007555263 -0.09060451 -0.023126854 -0.070377566 -0.044177663 0.036612794 0.027197208 -0.05188246
0.030459194 0.053784475 0.05113676 0.010787979 -0.10630785 -0.0044124294 0.050524604 -0.014407209
0.08705341 -0.011871787 -0.01847136 0.045955777 -0.048389982 0.08344693 -0.028931765 -0.07425919
-0.008402294 -0.07981341 0.007366973 0.06430515 -0.053447124 -0.103776634 -0.03293738 -0.099122755
0.022816136 0.0014557863 0.072144456 -0.024490964 0.066786185 -0.1361899 -0.067508034 -0.077300735
-0.04206583 -0.023979235 0.025150117 -0.070684835 -0.01191683 -0.059988238 -0.05956935 -0.018247152
0.083532356 0.032519873 0.07832743 0.011657967 0.03556933 -0.09991303 0.073074095 0.096902244
0.08281895 -0.11027851 -0.0067485934 -0.040569924 0.066906884 -0.09751814 -0.02236867 -0.09533548
-0.0335873 -0.06853175 0.044685896 -0.009019494 0.06429499 -0.041649964 -0.027936518 0.04113798
0.012406499 0.06310085 -0.003934408 -0.04191279 -0.0130786225 0.019011563 -0.0055438015 -0.01417028
0.015318881 -0.004864862 -0.05792329 0.004644446 -0.0012587153 0.03062803 -0.018050482 0.04574314
0.029964183 -0.019831209 0.10191681 -0.06872897 0.017196132 -0.015322963 -0.06131989 -0.086747974
-0.10153838 -0.047939796 0.059447326 0.0624189 -0.06381294 -0.04916646 -0.051050514 -0.025581319
0.04262455 -0.043640755 -0.004011907 -0.086419225 0.0030704702 -0.0013062706 -0.03292097 0.017201338
-0.027685747 -0.002007327 0.04577968 -0.0314419 -0.015702972 -0.040620904 -0.011935368 -0.0040795533
-0.07141923 0.014583328 0.095422775 -0.081065126 -0.02261432 -0.043694578 -0.028029129 0.058721803
0.051786628 -0.03548667 0.011580722 -0.016184589 0.038286865 0.0053774295 -0.019077783 0.04213778
-0.06914301 -0.09273413 -0.10097952 -0.14199162 -0.017810086 -0.012580458 -0.0052004885 -0.06777357
00000000: 9b92 e03c c7b4 3fbd 56f9 11bd 2ad1 aa3d
00000010: adec a6bd 2c3e 58bd 5f25 073d 5791 063d
00000020: d276 983d 5bff 2abd 0078 633d 9cca d0bb
00000030: 3139 06bd d8de 85bd c3c2 86bd 958e ce3b
00000040: 8667 75bd 2335 a63b 8971 a3bc d3ff f9bc
00000050: d00b a4bd 74cf 2bbd cbac 30bd f80f 493d
00000060: 99d8 fdbc 7956 e63b 1b89 62bd a44c efbd
00000070: 98c0 8ebc 431a d4bd dda0 de3c 8ee7 6dbd
00000080: 90cd 343d a4b1 593c 7375 4f3c 5d16 cd3d
00000090: 475a 2b3c e788 c23d d67b cd3c dc56 8fbd
000000a0: 4343 05bd bc7d 99bc dab1 b0bc 3246 533d
000000b0: 9b90 80bd fdd8 eebc 40d6 2f3d 44fb 91bd
000000c0: 7932 fa3c f29b 14bd 601b a33c 695e 3dbd
000000d0: 9477 f0bc 309a 763d 921a c0bb 314d 353d
000000e0: 4a82 663d 6394 e0bc e051 eb3c cda0 0fbd
000000f0: 4030 86bd 07de 433d 9324 13bd eafd ae3c
00000100: da56 d5bc e83d f53c 41bd 913d 35ec b0bc
00000110: c7f3 b9bc 05ad 65bd 769d 493d 59e1 e7bc
00000120: 9ef8 713d 01d0 d63c 54a3 8bbd 30e9 e1bd
00000130: 58e0 5abd 42cd 003a e514 0d3d a9b0 d83d
00000140: 0546 91bc 6ebd c4bd baaa 493d 9b97 c33b
00000150: 7484 4dbd 2383 873c 2d7f 093d aff7 64bd
00000160: 4ad2 24bd 5b53 90bb 6455 fcbb 7a8e 2c3d
00000170: 28f9 7a3d 8b90 803d 41ec 45bd 8e28 cebd
00000180: 0220 053d 2186 a5bb 98b7 c23c e4ed 41bd
00000190: 3068 f5bd bd26 a2bc 269c ff3c d003 4fbd
000001a0: 9023 77bd 3077 e3bd b859 c8bd d96a fe3c
000001b0: b555 1a3d de7b 703c 0b91 4b3d ae7d 693c
000001c0: 2492 f7bb db8e b9bd 8774 bdbc 1d22 90bd
000001d0: a3f3 34bd 4cf7 153d aecc de3c b482 54bd
000001e0: 8f85 f93c 1c4d 5c3d c774 513d 10c0 303c
000001f0: eeb7 d9bd 2496 90bb e3f2 4e3d 370c 6cbc
00000200: 0f49 b23d e281 42bc 4051 97bc 203c 3c3d
00000210: 9334 46bd 39e6 aa3d 4f02 edbc 3415 98bd
00000220: c6a9 09bc 3775 a3bd a666 f13b 6bb2 833d
00000230: 5feb 5abd d888 d4bd 59e9 06bd df00 cbbd
00000240: e8e8 ba3c 15d0 be3a 79c0 933d 46a1 c8bc
00000250: 32c7 883d 5d75 0bbe a741 8abd d94f 9ebd
00000260: 384d 2cbd 1a70 c4bc 9e07 ce3c 36c3 90bd
00000270: cf3e 43bc 3ab6 75bd fefe 73bd 0d7b 95bc
00000280: 0313 ab3d 8f33 053d 226a a03d 0f01 3f3c
00000290: 25b1 113d 349f ccbd dfa7 953d af74 c63d
000002a0: fb9c a93d b3d9 e1bd 4e23 ddbb a62c 26bd
000002b0: 7a06 893d 97b7 c7bd 803e b7bc 403f c3bd
000002c0: d692 09bd 605a 8cbd 8f08 373d 80c6 13bc
000002d0: 17ad 833d 2799 2abd 20db e4bc 4c80 283d
000002e0: a144 4b3c 053b 813d 35ec 80bb bfac 2bbd
000002f0: b847 56bc 23be 9b3c c7a8 b5bb 762a 68bc
00000300: 0bfc 7a3c 6c69 9fbb f940 6dbd 7030 983b
00000310: 7afb a4ba a2e7 fa3c 9bde 93bc 295d 3b3d
00000320: 7277 f53c 0f75 a2bc c3b9 d03d c6c1 8cbd
00000330: e7de 8c3c 2a0d 7bbc 912a 7bbd eca8 b1bd
00000340: 5bf3 cfbd 855c 44bd 0a7f 733d f6aa 7f3d
00000350: 5cb0 82bd c562 49bd 581a 51bd ea8f d1bc
00000360: 1597 2e3d a6c0 32bd 5176 83bb 90fc b0bd
00000370: f139 493b 2b37 abba 24d8 06bd d2e9 8c3c
00000380: 38cd e2bc 5c8d 03bb 7983 3b3d 39c9 00bd
00000390: 85a3 80bc 1b62 26bd 908c 43bc c6ad 85bb
000003a0: 3f44 92bd e9ee 6e3c 046d c33d 7905 a6bd
000003b0: ab41 b9bc 16f9 32bd 589d e5bc 4686 703d
000003c0: 371e 543d 785a 11bd 12bd 3d3c 8b95 84bc
000003d0: b0d2 1c3d 2635 b03b 0349 9cbc aa98 2c3d
000003e0: da9a 8dbd 64eb bdbd 5ace cebd 4066 11be
000003f0: 75e6 91bc 441e 4ebc dc68 aabb dfcc 8abd

model.bias f4 [10]
0.016452074 -0.018773204 -0.064239115 0.00043161534 0.041898683 -0.03923942 -0.012104108 0.017923808
-0.026921183 0.0013580708
00000000: 80c6 863c 43ca 99bc cc8f 83bd 6e4a e239
00000010: f49d 2b3d 84b9 20bd 4f50 46bc f3d4 923c
00000020: d089 dcbc 4b01 b23a
