tutorial17/LogisticRegression_10.ckpt (torch, 21799 bytes, 2 tensors)

model.weight f4 [10, 512]
0	0xbb828767	-0.0039834264
1	0xbae0334d	-0.0017105133
2	0xbd3a904c	-0.04554777
3	0x3d9c6da7	0.07638102
4	0xbd56cb97	-0.052440252
5	0xbc39816c	-0.0113223605
6	0x3c1cbb22	0.0095661
7	0x3d2cbbf7	0.042171445
8	0x3d9c5f43	0.07635357
9	0xbcfef9ce	-0.031124976
10	0x3ce06da2	0.027396027
11	0x3be2f791	0.006926485
12	0x3c8059c2	0.0156678
13	0xbd20e842	-0.039284
14	0xbce0d0cd	-0.027443314
15	0xbd106786	-0.035254978
16	0x3af79306	0.0018888421
17	0xbcb8f9bd	-0.022580022
18	0x3b87ced0	0.004144527
19	0x3a8915f2	0.0010458811
20	0xbda0a58a	-0.07844074
21	0xbd4510f1	-0.04811186
22	0xbd4d2eb6	-0.050093375
23	0x3d0ac7f4	0.033882096
24	0xbd397af9	-0.04528329
25	0x3c615b9d	0.013754752
26	0xbd1e61f6	-0.03866764
27	0xbd9a2bfb	-0.0752792
28	0xbc2b6ce5	-0.010462974
29	0xbdc514e8	-0.09623128
30	0x3d4cd756	0.050010048
31	0xbcfeafa5	-0.031089613
32	0x3d8741ff	0.06604385
33	0x3d2b435c	0.041812286
34	0x3b9755f0	0.004618399
35	0x3d823b68	0.06358987
36	0xbc2af8e8	-0.01043532
37	0x3d944817	0.072403125
38	0x3d00f563	0.03148402
39	0xbd8cb440	-0.068703175
40	0xbcd70612	-0.026248012
41	0x3971ac10	0.0002304765
42	0xbd10900a	-0.035293616
43	0x3d4a7a77	0.049433198
44	0xbcb8a8b8	-0.022541389
45	0xbd0302b6	-0.031985007
46	0x3d745b14	0.05965717
47	0xbd31d96c	-0.04342024
48	0x3d1119a3	0.03542484
49	0xbcdbda60	-0.026837528
50	0x3b2811c0	0.0025645345
51	0xbd079cde	-0.033108585
52	0xbd3e023d	-0.046388853
53	0x3d8098d1	0.062791474
54	0x3c52f2d3	0.012875277
55	0x3d576768	0.05258885
56	0x39095683	0.00013097566
57	0xbca347ba	-0.019931663
58	0xbb783bce	-0.0037877443
59	0xbd89fe51	-0.0673796
60	0xbc67788c	-0.014127862
61	0xbcd5b34f	-0.026086478
62	0xbc59662b	-0.013268988
63	0x3c944108	0.018097416
64	0x3ca5781e	0.020198878
65	0x3d051917	0.03249463
66	0x3caab2e6	0.020837259
67	0x3c92d079	0.017921673
68	0x3c3c69b1	0.011499808
69	0xbd83165e	-0.064007506
70	0x3ccf4929	0.02530344
71	0xbcd8551e	-0.026407775
72	0x3d76d229	0.060259018
73	0x3c1c1d8e	0.009528531
74	0xbd670456	-0.05640062
75	0xbdacd935	-0.084398665
76	0xbd1f877b	-0.038947564
77	0xbc831215	-0.015999833
78	0x3c1d1049	0.009586402
79	0x3d71070d	0.058844615
80	0x3bd235ed	0.00641512
81	0xbce7683b	-0.028247943
82	0x3d0d9502	0.034565933
83	0xbb1a7abc	-0.002357169
84	0xbbd97d05	-0.006637218
85	0xbc32cc60	-0.010912985
86	0x3d5ce90e	0.053933196
87	0xbc2511f1	-0.010075078
88	0xbc540922	-0.012941631
89	0xbc47b3be	-0.01218885
90	0x3c2de3ce	0.010613395
91	0x3d08d63a	0.033407427
92	0x3d0b0b1b	0.033946138
93	0x3d6d4fe0	0.057937503
94	0xbd5b94dc	-0.05360876
95	0xbd809a69	-0.062794514
96	0x3ce93875	0.028469304
97	0xbb691643	-0.0035566248
98	0x3bae9c01	0.0053286557
99	0xbd0b7ef3	-0.034056615
100	0xbda151b8	-0.07876915
101	0x3b187973	0.0023265749
102	0x3c9b5b41	0.018964412
103	0xbd373bd3	-0.044734787
104	0xbd2d5f2f	-0.042327102
105	0xbdafb11f	-0.08578705
106	0xbd8c1f64	-0.06841925
107	0x3c13d8cf	0.009023859
108	0x3c102aba	0.008799249
109	0xbbbcccd4	-0.005761722
110	0x3d81b305	0.063329734
111	0xbd0a948b	-0.033833068
112	0xbb445f17	-0.0029963905
113	0xbdb18cbd	-0.08669422
114	0xbcbc4f8b	-0.022987148
115	0xbd5896ce	-0.052878194
116	0x3c652b41	0.013987363
117	0x3ba7b75c	0.0051182937
118	0xbb2bec0d	-0.0026233227
119	0xbd27acbd	-0.04093622
120	0x3b18f2e0	0.0023338124
121	0x3cd252c0	0.025674224
122	0x3d2ffdba	0.042966582
123	0x3c7737ad	0.015088958
124	0xbd86cba5	-0.06581811
125	0xbbd17830	-0.0063925013
126	0x3c958c15	0.018255273
127	0xbd21b456	-0.039478622
128	0x3d765b16	0.06014546
129	0xbd2bf4ca	-0.041981496
130	0x3d1fcee6	0.039015673
131	0x3be5bee8	0.007011283
132	0xbcd4019d	-0.025879676
133	0x3d90d557	0.07071941
134	0x3bb04fcb	0.005380606
135	0xbd57a532	-0.052647777
136	0xbcb78f72	-0.022407267
137	0xbdc86dbe	-0.09786557
138	0xbcd107f7	-0.025516493
139	0x3d28e474	0.041233495
140	0xbd082bc6	-0.03324487
141	0xbd94235d	-0.072333075
142	0xbc2465a6	-0.0100340005
143	0xbd367d98	-0.04455337
144	0x3b504cfb	0.0031784165
145	0x3caeab65	0.021321962
146	0x3d8c046f	0.06836783
147	0x3d4f9ba4	0.05068554
148	0x3d88ead4	0.06685415
149	0xbd9ab1b0	-0.075534225
150	0xbd1f1148	-0.03883484
151	0xbd6e0310	-0.05810839
152	0xbc953cbb	-0.018217435
153	0xbcb6e18a	-0.022324342
154	0x3d279409	0.04091266
155	0xbd8e0b6f	-0.069357745
156	0xbcb3daec	-0.021954976
157	0xbb56272b	-0.0032677155
158	0xbcf75f02	-0.03019667
159	0xbc25ec9f	-0.010127216
160	0x3d96c893	0.07362475
161	0x3ba96122	0.00516905
162	0x3d312af8	0.04325387
163	0xbb27f603	-0.0025628812
164	0x3cda3b01	0.026639463
165	0xbd837769	-0.0641926
166	0x3c896fec	0.016777001
167	0x3da17239	0.07883114
168	0x3d292aea	0.04130069
169	0xbd8b1bef	-0.06792437
170	0xbd25857f	-0.040410515
171	0xbd49773b	-0.049185973
172	0x3d82dc37	0.06389659
173	0xbd5e8d66	-0.054334067
174	0xbd32c536	-0.043645106
175	0xbd366e40	-0.044538736
176	0xbcdb5f18	-0.026778743
177	0xbcf859d7	-0.030316276
178	0x3d6bcabc	0.05756639
179	0xbd259531	-0.040425483
180	0x3d428e59	0.047499035
181	0x3ca1dc38	0.019758329
182	0xbd331f3c	-0.04373096
183	0x3ce734f2	0.028223488
184	0x3d3b575c	0.04573761
185	0x3d33ec9e	0.043926828
186	0xbcdcafcb	-0.026939293
187	0xbc965494	-0.018350877
188	0xbcc08acb	-0.023503682
189	0x3c781bef	0.015143379
190	0x3b884550	0.0041586533
191	0x3ca6e9a0	0.020375073
192	0x3d03ee67	0.03220978
193	0x3d3c7c19	0.046016786
194	0xbc97a080	-0.01850915
195	0xbc5eac8b	-0.013590942
196	0xbb5d9356	-0.0033809743
197	0x3c5b518a	0.01338614
198	0x3cc64a49	0.024205344
199	0x3c116fd0	0.008876756
200	0x3b0e3d97	0.002170419
201	0xbc2e9b08	-0.0106570795
202	0x3d3f952a	0.046773113
203	0xbcd406cf	-0.025882153
204	0xbc29acad	-0.0103561105
205	0x3ca40b0a	0.020024795
206	0xbd0ad7c9	-0.033897195
207	0xbda371f4	-0.07980719
208	0xbd6df786	-0.058097385
209	0xbc8fa907	-0.017536653
210	0x3d812c99	0.063073345
211	0x3d7e2698	0.062048525
212	0xbc258e3e	-0.010104714
213	0xbd982bbe	-0.07430218
214	0xbd4740c5	-0.048645753
215	0xbb022cd1	-0.0019863138
216	0xbd14a593	-0.036290716
217	0xbd110ed3	-0.035414528
218	0xbcd58538	-0.0260645
219	0xbd8175c6	-0.063212916
220	0xbcbfc139	-0.023407565
221	0x3c4e0071	0.012573347
222	0xbc8993f9	-0.016794192
223	0x3ceb999c	0.02875977
224	0xbd4e2d8e	-0.050336413
225	0x3b93cebf	0.00451073
226	0x3d5f7a4f	0.054560002
227	0xbc73f7ca	-0.0148906205
228	0x3a78facb	0.000949782
229	0xbc7dc42c	-0.015488666
230	0xb7b741b6	-2.1845899e-05
231	0xbc7de01c	-0.015495326
232	0xbd101948	-0.03518036
233	0x3d4a9841	0.049461607
234	0xbbb3a987	-0.0054828557
235	0xbd13e7a1	-0.03610957
236	0xbd0215b0	-0.031758964
237	0x3c10b303	0.008831742
238	0xbd4a7efe	-0.049437515
239	0x3baf7555	0.0053545632
240	0x3ce7939f	0.028268633
241	0xbc922aa1	-0.017842593
242	0x3c8471c1	0.016167523
243	0xbd06d8a5	-0.032921452
244	0x3cebb179	0.028771149
245	0xbc8c1bdd	-0.01710313
246	0xba6a3657	-0.0008934489
247	0x3d0d50ce	0.03450089
248	0xbd5a8f7d	-0.053359497
249	0xbcf4939e	-0.029855546
250	0xbd607a20	-0.054803967
251	0xbdb01323	-0.085974
252	0xbd69f708	-0.057120353
253	0xbd380987	-0.04493096
254	0x3c9ff651	0.019526633
255	0xbdba90a3	-0.091096185

model.bias f4 [10]
0	0x3c93fde4	0.0180654
1	0xbd3071ab	-0.043077152
2	0xbd726217	-0.059175577
3	0x3b75f0da	0.0037527592
4	0x3d3b818d	0.045777846
5	0xbce4937b	-0.027902355
6	0x3bbfe20f	0.0058558057
7	0x3c78b0a8	0.015178837
8	0xbcc35187	-0.023842586
9	0x3b8b1fc0	0.0042457283
