tutorial17/LogisticRegression_500.ckpt (torch, 21799 bytes, 2 tensors)

model.weight f4 [10, 512]
00000000: 656c 0ebd 2b3d 13be 63ad abbc fda8 1a3d
00000010: f34f 71bd 6b7d 64bd 6eaa b53d d6d7 42bd
00000020: 946f 953d eaa7 d9bc 96e7 023e aa4e 893d
00000030: ef27 103a 3f05 36be 3af0 403c dc26 09bd
00000040: 6be7 b1be daa5 ab3d 62c7 86bd 6b10 e0bd
00000050: b514 53be d760 2cbe 17b9 03bd 8ef8 e13d
00000060: ef94 923c be25 c43c 0c27 10bd 8bf7 a1be
00000070: 7000 343c c3ef 7dbe 443b 38bc aae8 5f3d
00000080: a25d d53b 7b5b 3fbd 9242 163d ab58 a23e
00000090: 42ff 033e d0cb 573e 47e0 1b3b 5347 243e
000000a0: 45a5 60bd 2a6c b3bc d1c9 12bd b243 243d
000000b0: d1b7 42be a4da 6abc 16d4 80bd ac76 7bbe
000000c0: 5c6c 94bd 6791 933d 5a07 ee3d dce3 703c
000000d0: 05ff a8bd a5cd 2c3c 88fe 103e 5f8c 16be
000000e0: bf0d 303e d04c c7bc 70ef dd3d eeea 80bc
000000f0: c242 57be f340 f93d 1109 febd adbd 0f3d
00000100: 5a35 2cbe 14c6 1ebd bd1b c23d 2dab b5be
00000110: 2a67 8a3d 701d 50bd ca98 753b 0049 d6bd
00000120: b12a 823d d1e1 c6bc 2e83 eebb f094 5cbe
00000130: ca31 cabd 2d4a 503e 24dd 03be b98a 573e
00000140: 27e4 91ba 082d 04be 6bd1 ff3d 9c97 223d
00000150: c7c0 c4bd 22e8 143e b75b 4c3d 12f1 11be
00000160: 4966 a2bd d471 5cbd 40ff 51bd 35bd 163d
00000170: 4148 413e 738c ca3d 151c a9bd fad0 b2be
00000180: 353c 263d 3446 fcbd 6d95 193c 39a7 393c
00000190: 00fd 0fbe 0768 1a3d 1f1e f6bd 1507 49be
000001a0: cf60 f9bd 97e3 9abd f4c3 70be d744 723e
000001b0: c581 af3c 4764 c43d 4a36 0cbe 30a9 523d
000001c0: 1454 c9be c06d 2bbc 40d4 42bc 0e06 4abd
000001d0: 85a2 0dbe 45a3 6b3d f324 28bd 6f96 5bbc
000001e0: 9c86 20bd 01e6 303e 71d2 13bc 37d9 db3d
000001f0: 76dd 68be 70e1 c83d 34d3 1f3d 16e0 0c3d
00000200: a077 963d fef4 08bc 6d1c 21be 55d1 213e
00000210: 968b 053e 78e8 653e 0156 003e c697 12bb
00000220: 8c94 91bd 3ed8 d1bd 2bfe 773b 275e ed3c
00000230: b56d 1f3d bf29 673d dfc3 7dbe cb75 80bd
00000240: 77d0 94bc 9049 933b 7c65 50be 2912 03be
00000250: cecb aa3a 9c04 6abe 8bb3 14be 3e8a 22be
00000260: 3ba7 07bd bc41 2a3e bc6f 563d bf4d b0be
00000270: d5c5 69bd 9122 49bd 6fed 9abe 6c46 a6bc
00000280: e9be 893d 9bab 66bd 6fe1 0f3e 740b b3bd
00000290: c979 c83c 37ee 6ebe b148 863c 5ed7 993d
000002a0: c923 223e 0f3f 2abd 2203 b8bd 5b9a 0dbe
000002b0: e521 2a3e b894 8ebe eccc 3b3d 2bd0 00be
000002c0: 2fe6 6d3d 5e7e a3be b5a9 7ebd 40d3 56bb
000002d0: b72e 1e3a cdbf d0bd 74b7 563e 4fab b13d
000002e0: 488d 9ebd 9660 d93d ef91 1dbe 4991 3bbe
000002f0: f5ce 193d fe31 8b3d d545 4fbd 9804 b73c
00000300: 31d0 dbbb 2cab 0dbe b36f b53c 86a3 a13d
00000310: 80b4 d33c 87bb e1bd d5e3 443c a227 a5bd
00000320: 1a83 c7bb d1c5 15be 4bc3 fb3d 8637 07be
00000330: 6e21 7c3d 7240 debd 17f5 db3c f021 0dbe
00000340: ea89 0b3d ea35 bc3d c24e 013e bb8b 063e
00000350: 897d e03b ee7a 2abe f363 06be 535a 033d
00000360: b27a 003e 54ab 02be a993 2b3c 3f67 a63d
00000370: 398d 20bd 3f62 913e 26c1 e03d d7c2 34ba
00000380: cec5 f13c b36a 46bd a9ae ad3b 7e8f 9abe
00000390: 2157 733d b13b 03be a91c 1c3d 96bb 57be
000003a0: f9c4 20be f18f b5bb 0680 283e c732 91be
000003b0: 9d03 9fbd a097 f1bd 411d 513e d4f1 653e
000003c0: 05cf b83c c5b6 05be 1836 393c 5e36 fa3d
000003d0: f504 8dbd f12e 15bd f007 483d 8dda abbc
000003e0: 61c1 debd e74b 1ebf fbfe 96be 8799 dfbe
000003f0: 4a4b c33c 0811 ba3d 5f4b c53d 4b52 39bd
-0.03477134 -0.14378802 -0.0209567 0.037758816 -0.058914136 -0.05578367 0.088703975 -0.04756912
0.072966725 -0.026569325 0.12783656 0.06704457 0.00054991146 -0.17775439 0.0117760245 -0.033484325
-0.3474687 0.08381243 -0.06580998 -0.109406315 -0.20613368 -0.16833816 -0.032158937 0.11033736
0.017893283 0.023943778 -0.035193488 -0.31634173 0.010986432 -0.24798493 -0.011244599 0.054665245
0.006511406 -0.046718102 0.03668458 0.31708273 0.12890342 0.21073842 0.0023784803 0.16042833
-0.054845113 -0.021902163 -0.035837 0.04010362 -0.19015433 -0.014334355 -0.06290452 -0.24556988
-0.072472304 0.07205468 0.11622496 0.014702763 -0.08251766 0.010547076 0.14159596 -0.14701985
0.17192744 -0.02432862 0.10836685 -0.015737023 -0.2102156 0.12170591 -0.12404073 0.035093
-0.16817227 -0.03876312 0.09477947 -0.3548216 0.06757958 -0.050809324 0.0037475103 -0.104631424
0.06355799 -0.0242776 -0.0072788214 -0.2154119 -0.09872778 0.20340796 -0.12877327 0.21049012
-0.0011130617 -0.12907803 0.12491115 0.039695367 -0.09607082 0.14541677 0.049892154 -0.14252117
-0.079296656 -0.053819492 -0.051268816 0.036801536 0.18875219 0.0989007 -0.08257309 -0.3492506
0.04058476 -0.12318078 0.009374005 0.011331373 -0.14061356 0.037696864 -0.12017464 -0.19631608
-0.12176668 -0.075629406 -0.2351225 0.23659073 0.021424184 0.09589439 -0.13692585 0.05143088
-0.3932196 -0.010463178 -0.011891425 -0.04932218 -0.13831528 0.057528753 -0.041050863 -0.013402565
-0.039190874 0.1727524 -0.009022341 0.1073479 -0.2274073 0.09808624 0.03901978 0.034393393
0.073470354 -0.008359192 -0.157335 0.1580251 0.13041529 0.22451961 0.12532808 -0.0022368296
-0.07108411 -0.10246323 0.0037840705 0.02897556 0.038922984 0.056436297 -0.2478175 -0.06272467
-0.01816581 0.0044948533 -0.20351213 -0.12799896 0.0013030709 -0.22853321 -0.14521615 -0.15873048
-0.033118468 0.16626638 0.052352652 -0.34434316 -0.057073433 -0.04910523 -0.30259272 -0.020297252
0.06725866 -0.056316 0.1405084 -0.08742419 0.024472134 -0.23333059 0.016392084 0.07511781
0.15833963 -0.041564044 -0.089849725 -0.13828413 0.16614492 -0.27847838 0.045849726 -0.1257941
0.05808085 -0.31932348 -0.062173564 -0.0032779723 0.0006034183 -0.10192833 0.2096842 0.08675253
-0.07741791 0.106141254 -0.153877 -0.1831714 0.037550885 0.06796645 -0.050603706 0.022341058
-0.006708168 -0.13834828 0.022147989 0.07892518 0.025842905 -0.11022096 0.01201721 -0.080642
-0.0060886266 -0.14626242 0.122931086 -0.13204774 0.06155532 -0.10852136 0.026850266 -0.13782477
0.034067072 0.09189971 0.126277 0.1313924 0.0068509025 -0.16648456 -0.13124065 0.03206856
0.12546805 -0.12760669 0.010472217 0.081251614 -0.03919718 0.28395268 0.1097434 -0.00068954885
0.029513266 -0.0484416 0.005300362 -0.301876 0.059409264 -0.12815739 0.03811327 -0.21067652
-0.15700139 -0.005540841 0.16455087 -0.28359053 -0.07764361 -0.11796498 0.20421316 0.22455531
0.022559652 -0.13058002 0.011304401 0.12217401 -0.06885711 -0.03642172 0.048835695 -0.020978237
-0.10876728 -0.6183457 -0.2949141 -0.4367182 0.023839612 0.0908528 0.096335165 -0.045244496

model.bias f4 [10]
00000000: 0569 f6bb 9ac0 9abc 4658 a3bd 777c 0a3c
00000010: 97c7 463d d7df b9bd e42d 9ebb 87cf 223d
00000020: ec3f 933c 0335 093d
-0.0075198435 -0.018890668 -0.07975821 0.008452526 0.048530187 -0.09075897 -0.004827248 0.039748695
0.017974816 0.03349782
