tutorial17/LogisticRegression_200.ckpt (torch, 21799 bytes, 2 tensors)

model.weight f4 [10, 512]
-0.002826241 -0.0650951 -0.026008159 0.09177184 -0.07187497 -0.110656545 0.06019232 0.011143748
0.09246727 -0.05086725 0.05663982 0.017504536 5.3588392e-05 -0.083814494 -0.056758992 0.007021484
-0.12909698 -0.013057451 -0.05489982 -0.08426027 -0.14234851 -0.089442566 -0.05107007 0.08038308
-0.04772048 0.03753604 -0.052654274 -0.17569296 0.0012813057 -0.10583418 0.030550905 -0.009557812
-0.016266719 -0.037675157 0.044967603 0.1284505 0.04097497 0.16876782 0.020626921 -0.079898834
-0.03620964 0.017894698 -0.081344165 0.041410383 -0.12862305 -0.02377584 0.04251297 -0.101120435
0.0015236773 -0.014051951 0.06103312 -0.07763479 -0.079499185 -0.005354826 -0.012044984 -0.0135854455
0.04005329 -0.06418504 0.020272024 -0.0033746383 -0.12453685 0.049655158 -0.019269418 0.005556425
-0.05463874 0.0014671872 0.08590405 -0.11158696 0.019000629 -0.08801234 0.06277383 -0.079279676
0.12945747 0.005749851 -0.03176882 -0.13791198 -0.0642065 0.07722153 0.013671996 0.11534213
-0.09072361 -0.09901208 0.08045517 0.049221914 -0.08751002 0.05831237 0.08361841 -0.051757924
-0.033138096 0.0073724804 -0.0073619215 0.050153475 0.099918194 0.06933831 -0.10081454 -0.18303593
-0.030431176 0.0046534785 0.046899524 0.0018811859 -0.13618496 0.0044430927 0.008528368 -0.058622763
-0.099427104 -0.15315334 -0.1591338 0.069247305 0.018451154 0.022775136 -0.023847096 0.020796845
-0.1141846 -0.046470832 -0.053909507 -0.07880029 -0.050216153 0.045163877 -0.0004730776 -0.03690413
-0.011207263 0.113395944 0.051266592 0.015398781 -0.10966192 0.00723445 0.05437349 0.047752984
0.085774735 -0.011077048 -0.057965297 0.0028051464 0.029393476 0.11489679 0.029589565 -0.012261822
0.013199924 -0.11134597 0.023379976 0.06460099 -0.0043383874 -0.045151364 -0.0652538 -0.13168234
0.028446848 -0.007669082 0.0024186037 -0.06802478 0.028277138 -0.18712124 -0.10788938 -0.11537547
-0.059747696 0.017835628 0.08601966 -0.14882371 -0.04181763 -0.04130007 -0.048014566 0.0009067354
0.105585724 0.04591106 0.1356004 -0.0027102127 0.06284315 -0.12314535 0.111576915 0.06342445
0.12328613 -0.057005245 -0.008491003 -0.10297148 0.1416806 -0.16453953 0.038444776 -0.08509305
-0.027586602 -0.1280749 0.0039296076 -0.018428845 0.048593156 -0.084896185 0.03962131 0.04795145
0.007077581 0.10892142 0.005368296 -0.06022109 -0.026552755 -0.011930421 -0.051453695 -0.004443729
-0.026027804 -0.066929184 -0.06801166 -0.01669148 -0.00096110225 -0.022357408 0.0031279547 0.0063293152
0.042944796 -0.06207459 0.08273532 -0.073178835 0.03981827 -0.016817754 -0.08998963 -0.11009234
-0.049963035 -0.056828007 0.0811926 0.07186056 -0.0048153773 -0.10450067 -0.07131386 -0.010640339
0.056909293 -0.058235478 -0.04128116 -0.003264224 0.015446275 0.06557755 -0.018330777 0.026818583
0.018768057 -0.0065220334 0.059677735 -0.09189274 0.010536207 -0.061740693 -0.00020665256 -0.06610844
-0.07768703 0.0047894535 0.0979311 -0.08050899 -0.023986556 -0.037610408 0.011512414 0.115461655
0.07406876 -0.099081874 0.007547341 0.008828703 -0.018009165 -0.0063415845 -0.0072353007 0.03400459
-0.095625915 -0.20654695 -0.17602566 -0.20481676 0.018084323 0.014876564 0.04551156 -0.111982115
00000000: 7538 39bb 9450 85bd 100f d5bc e0f2 bb3d
00000010: 2f33 93bd e69f e2bd 398c 763d 4494 363c
00000020: 7b5f bd3d 2d5a 50bd 28ff 673d ac65 8f3c
00000030: 19c4 6038 efa6 abbd 1e7c 68bd 7a14 e63b
00000040: 0032 04be ebee 55bc a2de 60bd a690 acbd
00000050: cfc3 11be aa2d b7bd da2e 51bd e29f a43d
00000060: 8d76 43bd 64bf 193d 02ac 57bd dbe8 33be
00000070: 7cf1 a73a 97bf d8bd e445 fa3c 5e98 1cbc
00000080: c841 85bc 4451 1abd f32f 383d 8788 033e
00000090: 5fd5 273d 79d1 2c3e caf9 a83c 00a2 a3bd
000000a0: 8f50 14bd e797 923c c597 a6bd ef9d 293d
000000b0: c3b5 03be 8dc5 c2bc 1422 2e3d 3b18 cfbd
000000c0: 20b6 c73a 273a 66bc ddfd 793d fdfe 9ebd
000000d0: 78d0 a2bd 8977 afbb 5358 45bc 7d95 5ebc
000000e0: eb0e 243d 7273 83bd 8411 a63c 0929 5dbb
000000f0: 2d0d ffbd 3563 4b3d e6da 9dbc ac12 b63b
00000100: dfcc 5fbd a24e c03a 76ee af3d b487 e4bd
00000110: 35a7 9b3c d03f b4bd 918f 803d 625d a2bd
00000120: 8090 043e 3f69 bc3b 0620 02bd cc38 0dbe
00000130: b37e 83bd 5226 9e3d 8200 603c 7f38 ec3d
00000140: 4dcd b9bd d8c6 cabd aec5 a43d eb9c 493d
00000150: 7438 b3bd f4d8 6e3d 2140 ab3d 1e00 54bd
00000160: d0bb 07bd d994 f13b 463c f1bb bb6d 4d3d
00000170: e9a1 cc3d 3e01 8e3d db77 cebd c56d 3bbe
00000180: cd4a f9bc 357c 983b b719 403d 2092 f63a
00000190: 1274 0bbe 5d97 913b 91ba 0b3c 6c1e 70bd
000001a0: 70a0 cbbd 3bd4 1cbe f9f3 22be 88d1 8d3d
000001b0: e026 973c ec92 ba3c fc5a c3bc 255e aa3c
000001c0: 9ed9 e9bd 3358 3ebd 37d0 5cbd 0c62 a1bd
000001d0: 74af 4dbd c2fd 383d 6707 f8b9 c928 17bd
000001e0: ab9e 37bc 223c e83d ebfc 513d 2b4b 7c3c
000001f0: 6e96 e0bd f70e ed3b bdb6 5e3d a298 433d
00000200: aaaa af3d 827c 35bc 056d 6dbd 8cd6 373b
00000210: 96ca f03c 024f eb3d d165 f23c cfe5 48bc
00000220: 7e44 583c 5b09 e4bd 5d87 bf3c 864d 843d
00000230: 0829 8ebb a3f0 38bd c9a3 85bd bcd7 06be
00000240: 5d09 e93c ec4c fbbb 7081 1e3b 9350 8bbd
00000250: 75a5 e73c b69c 3fbe 1bf5 dcbd f949 ecbd
00000260: 00ba 74bd 061c 923c 132b b03d 3e65 18be
00000270: f748 2bbd 432a 29bd ecaa 44bd fcb1 6d3a
00000280: 543d d83d 3c0d 3c3d d5da 0a3e d39d 31bb
00000290: e9b3 803d a133 fcbd 7082 e43d aee4 813d
000002a0: 707d fc3d 557e 69bd d91d 0bbc b6e2 d2bd
000002b0: b814 113e 0d7d 28be 4578 1d3d 4445 aebd
000002c0: 4cfd e1bc 1126 03be f0c3 803b 17f8 96bc
000002d0: 9e09 473d 0dde adbd f449 223d bd68 443d
000002e0: 0deb e73b 3212 df3d 88e8 af3b 64aa 76bd
000002f0: 2a85 d9bc d077 43bc 1cc1 52bd b39c 91bb
00000300: 4338 d5bc 2b12 89bd b249 8bbd 92bc 88bc
00000310: 7bf2 7bba e226 b7bc 5ffe 4c3b 2566 cf3b
00000320: e2e6 2f3d ed41 7ebd 2371 a93d c9de 95bd
00000330: 7b18 233d 63c5 89bc 7c4c b8bd 1878 e1bd
00000340: 0aa6 4cbd 7cc4 68bd 4e48 a63d a12b 933d
00000350: 50ca 9dbb 7304 d6bd 000d 92bd d154 2ebc
00000360: b819 693d 5388 6ebd 6f16 29bd 97ec 55bb
00000370: 5f12 7d3c 864d 863d 6d2a 96bc a5b2 db3c
00000380: 78bf 993c c8b6 d5bb a470 743d 4332 bcbd
00000390: 0ea0 2c3c cfe3 7cbd e0b0 58b9 dd63 87bd
000003a0: 611a 9fbd d9f0 9c3b 1a90 c83d e6e1 a4bd
000003b0: 747f c4bc 5f0d 1abd 909e 3c3c 2977 ec3d
000003c0: 5db1 973d 70eb cabd af4f f73b 44a6 103c
000003d0: f587 93bc 11cd cfbb 1a16 edbb 6648 0b3d
000003e0: 85d7 c3bd 0b81 53be 1240 34be 7cbb 51be
000003f0: 9325 943c d5bc 733c 546a 3a3d e156 e5bd

model.bias f4 [10]
0.020776303 -0.022979435 -0.06741669 0.00977376 0.04321173 -0.049647793 -0.013399164 0.021773068
-0.021068985 0.011208345
00000000: 1133 aa3c 5e3f bcbc c311 8abd 1f22 203c
00000010: c8fe 303d 7c5b 4bbd 2b88 5bbc 6f5d b23c
00000020: dd98 acbc 35a3 373c
