tutorial17/LogisticRegression_20.ckpt (torch, 21799 bytes, 2 tensors)

model.weight f4 [10, 512]
0.041426543 -0.025834048 -0.02088187 0.09223348 -0.0873428 -0.046214264 0.023917029 0.038448993
0.090575054 -0.052565165 0.044393327 0.028895833 -0.007785332 -0.0574838 -0.082557365 -0.056379445
-0.034493867 -0.01199686 -0.014941946 -0.019273495 -0.070679374 -0.011739258 -0.06430409 0.027284978
-0.0059863403 0.018061886 -0.025267867 -0.105142675 -0.012761765 -0.101560295 0.024365477 -0.051838465
0.025483392 0.024287004 0.006195967 0.09404828 -0.005207201 0.08114337 -0.0026572424 -0.072378345
-0.04416284 0.021667361 -0.007914071 0.049288526 -0.01726149 -0.08194225 0.06259669 -0.10251475
0.044856668 -0.04097183 0.016011508 -0.034894954 -0.028959272 0.067926764 -0.009059907 0.056699183
0.018861834 -0.016712675 -0.02891417 -0.0510718 -0.036868896 0.014775772 -0.036105562 0.03221997
-0.030689614 0.03704294 0.051594764 0.016530043 0.0016777153 -0.062315445 0.034552597 -0.011840514
0.06377964 0.022953605 -0.07435638 -0.11988872 -0.031783137 0.033008948 0.05496564 0.087075815
0.0047615557 -0.0929038 0.036517855 -0.0046159243 -0.049118932 -0.009408155 0.04548986 -0.03445904
-0.05127828 0.0107844975 -0.016840106 0.04185397 0.046527274 0.06289611 -0.04190086 -0.083271265
0.027723273 0.008035022 -0.011292586 -0.023647174 -0.09498096 -0.03289927 -0.0021550544 -0.04877866
-0.040820953 -0.11990967 -0.032698058 0.010812145 0.022710325 -0.008028115 0.06617646 -0.042005163
0.026365777 -0.08449939 -0.0025800518 -0.074464045 -0.019211741 0.019381342 0.01922269 -0.08769786
0.049459875 0.038997564 0.051756486 0.017344905 -0.0817443 -0.026369005 0.03666909 -0.0059519582
0.08457192 -0.009442156 0.012050582 0.022809854 -0.020962963 0.063154235 0.02452519 -0.09102033
-0.016545953 -0.123387925 -0.0022440322 0.058207344 -0.07320969 -0.059911262 -0.030838791 -0.06296789
0.00662693 -0.014588039 0.0783885 0.00033969607 0.06417587 -0.09663894 -0.05948077 -0.046044387
-0.026741145 -0.007428513 0.02651494 -0.049933456 -0.07081416 -0.03939942 -0.0665083 -0.01808165
0.085040614 -0.008982714 0.051983472 0.010222448 0.014834899 -0.10056659 0.04866507 0.08329057
0.054160755 -0.10007437 -0.05561766 -0.059708107 0.059961636 -0.08665635 -0.011975627 -0.06355096
-0.047514703 -0.044188526 0.07387441 -0.02810289 0.06314422 0.0018679798 -0.0023423496 0.04797818
0.031602867 0.014606352 -0.05789495 -0.003649503 -0.0076535605 -0.0031845444 0.017289909 0.01261623
0.033592984 0.037427574 -0.053065136 0.0010265395 -0.013009894 0.03902877 -0.010152458 0.036514346
0.011620431 -0.020287756 0.04655141 -0.055779196 -0.01016434 0.015666617 -0.05277965 -0.1068014
-0.08946508 -0.019525459 0.06951989 0.068881504 -0.05558352 -0.102430224 -0.020140843 -0.0322462
-0.039315496 -0.06396244 -0.059450585 -0.09326321 -0.015276179 -0.013374986 0.014758256 0.033006616
-0.04165932 -0.023480011 0.052835315 -0.007032261 -0.007421484 -0.025692519 0.0051041036 -0.0055207787
-0.07437316 0.0040214555 0.042992517 -0.08424156 -0.025570115 -0.0017409476 -0.049178243 0.03888001
0.0104947025 -0.03921572 0.016720723 -0.037307844 0.029000675 -0.019608619 -0.011321172 0.01414549
-0.09455733 -0.08374885 -0.09877443 -0.14395134 -0.04585921 -0.098826595 -0.0018851609 -0.07556897
00000000: e1ae 293d eda1 d3bc 7510 abbc e8e4 bc3d
00000010: c8e0 b2bd 2b4b 3dbd a5ed c33c b17c 1d3d
00000020: 6a7f b93d 924e 57bd c7d5 353d f4b6 ec3c
00000030: 191c ffbb 2274 6bbd d613 a9bd 22ee 66bd
00000040: 7149 0dbd 7a8e 44bc 10cf 74bc 73e3 9dbc
00000050: 59c0 90bd 0456 40bc ddb1 83bd bf84 df3c
00000060: 1029 c4bb 85f6 933c 8ffe cebc 0b55 d7bd
00000070: b916 51bc d8fe cfbd 1c9a c73c 9254 54bd
00000080: 8cc2 d03c 8af5 c63c 8a07 cb3b 629c c03d
00000090: 2ba1 aabb 7f2e a63d 2125 2ebb 193b 94bd
000000a0: 18e4 34bd c07f b13c 05aa 01bc c4e2 493d
000000b0: f867 8dbc 57d1 a7bd b232 803d 41f3 d1bd
000000c0: a0bb 373d 14d2 27bd 912a 833c 03ee 0ebd
000000d0: ff3b edbc 301d 8b3d 0170 14bc 673d 683d
000000e0: 2284 9a3c 05e9 88bc 69dd ecbc aa30 51bd
000000f0: d703 17bd 1416 723c 6de3 13bd 16f9 033d
00000100: c968 fbbc 56ba 173d 0855 533d 036a 873c
00000110: c9e6 db3a 7b3e 7fbd 0687 0d3d b7fe 41bc
00000120: e69e 823d 3309 bc3c 2848 98bd 3888 f5bd
00000130: 092f 02bd 6434 073d a723 613d ce54 b23d
00000140: d306 9c3b 5944 bebd bf93 153d 2e41 97bb
00000150: ef30 49bd aa24 1abc 9353 3a3d ec24 0dbd
00000160: 2c09 52bd 76b1 303c 43f4 89bc 126f 2b3d
00000170: 6293 3e3d adcf 803d 3ca0 2bbd 208a aabd
00000180: eb1b e33c 53a5 033c 8a04 39bc b8b7 c1bc
00000190: 6185 c2bd 63c1 06bd d03b 0dbb 22cc 47bd
000001a0: df33 27bd 3393 f5bd 66ee 05bd 6c25 313c
000001b0: 010b ba3c 5b88 03bc 8687 873d 9b0d 2cbd
000001c0: 0bfd d73c 040e adbd 1616 29bb 9b80 98bd
000001d0: f161 9dbc 9fc5 9e3c e778 9d3c f09a b3bd
000001e0: 7096 4a3d e9bb 1f3d 9cfe 533d e716 8e3c
000001f0: 8e69 a7bd d003 d8bc 5432 163d a508 c3bb
00000200: 0b34 ad3d 46b3 1abc ce6f 453c bbdb ba3c
00000210: 85ba abbc 0257 813d 0de9 c83c de68 babd
00000220: 618b 87bc cfb2 fcbd 9d10 13bb d36a 6e3d
00000230: f6ee 95bd 8365 75bd a2a1 fcbc 4ff5 80bd
00000240: b826 d93b ac02 6fbc 268a a03d 3c19 b239
00000250: a36e 833d a3ea c5bd 1ca2 73bd 0a99 3cbd
00000260: 3f10 dbbc e26a f3bb dc35 d93c 0687 4cbd
00000270: 0407 91bd 4961 21bd 8135 88bd f81f 94bc
00000280: c629 ae3d 3c2c 13bc 9fec 543d 0e7c 273c
00000290: 140e 733c dbf5 cdbd 0655 473d 3f94 aa3d
000002a0: abd7 5d3d cbf3 ccbd 58cf 63bd 7d90 74bd
000002b0: 559a 753d e278 b1bd 6c35 44bc 0127 82bd
000002c0: c79e 42bd 07ff 34bd 774b 973d 0838 e6bc
000002d0: c251 813d 00d7 f43a 1b82 19bb c584 443d
000002e0: 0272 013d 7b4f 6f3c 4123 6dbd 802c 6fbb
000002f0: b8ca fabb cab3 50bb 91a3 8d3c 4eb4 4e3c
00000300: cc98 093d a84d 193d d45a 59bd f38c 863a
00000310: 7327 55bc a2dc 1f3d 7f56 26bc 1190 153d
00000320: 9f63 3e3c 8232 a6bc b1ac 3e3d ba78 64bd
00000330: 5588 26bc 4757 803c 792f 58bd b1ba dabd
00000340: 7839 b7bd dbf3 9fbc 7260 8e3d bf11 8d3d
00000350: 8cab 63bd f0c6 d1bd 69fe a4bc 9714 04bd
00000360: 4909 21bd bdfe 82bd 7582 73bd c800 bfbd
00000370: f048 7abc c222 5bbc 9dcc 713c f231 073d
00000380: f7a2 2abd 2759 c0bc d869 583d e26e e6bb
00000390: ec2f f3bb 1e79 d2bc 5340 a73b a6e7 b4bb
000003a0: f550 98bd 6ac6 833b ec18 303d d786 acbd
000003b0: 6b78 d1bc 8230 e4ba 206f 49bd a540 1f3d
000003c0: f9f1 2b3c aaa0 20bd e6f9 883c 1cd0 18bd
000003d0: d392 ed3c 41a2 a0bc 707c 39bc 7cc2 673c
000003e0: 46a7 c1bd 8484 abbd 404a cabd fb67 13be
000003f0: ded6 3bbd 9965 cabd 8117 f7ba e7c3 9abd

model.bias f4 [10]
0.013405483 -0.03123667 -0.05786559 0.0035590301 0.046207514 -0.033860676 -0.0012438139 0.007982182
-0.02497527 0.002575829
00000000: aca2 5b3c 0ce4 ffbc 7804 6dbd 9e3e 693b
00000010: 1744 3d3d 7eb1 0abd 7807 a3ba b3c7 023c
00000020: f098 ccbc 3dcf 283b
